back-end/models/TCS/model.pth (torch, 439190 bytes, 23 tensors)

variable_selection.0.weight f4 [64, 10]
00000000: 4f6f a23d f5db a0be c67b c03d 6eef 72be
00000010: 90e9 d6bd 6558 95be 1d84 0c3e fa27 bcbd
00000020: bc8e a3be 6208 903e a20a 0d3e 4cd8 acbd
00000030: 2324 9fbc febb 5b3b 7cd6 933d d58b ab3e
00000040: 9f57 f33c f50b e7bd 9c13 823e 250e b63e
00000050: 7ae4 71be 9b15 cb3d 8797 093d 805b 5a3e
00000060: 01f0 37be 5469 3bbe 4048 12be 5722 113e
00000070: 104b 96be 2789 06be 42a1 853e 168f ca3d
00000080: bf85 503d deea 10be d729 273e a99d 29bd
00000090: 2b29 ecbd 3dfd 553d 3d01 a1bd 3e9c 4c3e
000000a0: 8dfe 463d f2ff 483e e213 28be a520 93be
000000b0: 8058 6d3e dc0c 7f3e 72e5 81be 7634 86be
000000c0: a508 8fbe 960d bc3c 88c7 d33d df28 983e
000000d0: d3dd 1bbe 8ed1 0c3e 5fa2 0b3e 4457 5c3e
000000e0: 89d4 943d 17c4 adbd 9e3b 0abe ee49 8b3e
000000f0: be98 43be 7510 913d bbbc 3e3d 3c33 d1be
00000100: 4474 743e 9ffb a6be fb2d 743b 20c1 f8bd
00000110: a37f 303e 2df4 073e 0c57 773e 5a51 20be
00000120: 1e94 303e 7c58 d83d ac2c 363d 9955 66be
00000130: 3db4 413e 7fdb 4ebe a79b 583e 7846 36be
00000140: 11ce ed3d 4cf5 003e e306 13bd b26e debd
00000150: a707 50be d472 3e3e 6a72 353e 0138 33bc
00000160: ad45 4bbd 0c74 33bd 353a 623c 1161 20be
00000170: 8c48 8f3e 44ee 063e 7e2f 56bd 7dcb cabd
00000180: a305 6c3e 29aa 703e 6770 573d 7ef0 293e
00000190: 0ba9 26be bec7 3a3e 4600 1bbd a106 cdbd
000001a0: 35f6 8abb a014 3e3c 89cd 8abe 7142 cbbe
000001b0: 372d 95be 844e babe 759e f23d 0562 90be
000001c0: c8c0 adbe e8bf 06be 0568 a6be 6d44 72bd
000001d0: 4d33 c93e 384a bd3e 7392 2c3e 5e9d cebc
000001e0: 4c4f c13d 1a2a 92be 8d18 483e ffeb a43d
000001f0: 3051 233e f99d 943d decb 9ebe 32a4 f0bd
00000200: c760 f9bd e33c 9d3b e70b 55be 043b 54be
00000210: a9b2 273e 32a3 963e 3447 22be 9161 a13e
00000220: 0123 803e 91ce f4bd f181 4b3e 914d d73d
00000230: 909a 9a3e da55 483e 3382 783e be90 583e
00000240: 66b0 0d3d f30d eabd dda4 63bc 5ff1 1e3e
00000250: 4faf 72bc b170 583d 4da1 aabe 81a5 8ebe
00000260: e687 c83d f6ec 44be fd6f 3cbe 78c4 81be
00000270: b6e8 af3e cfb6 fcbd 4c9a 0bbe 7223 23be
00000280: d79f 12bc 56b3 53bc 885a a83e b18a 0cbe
00000290: b521 96bd e843 96bd 105f 113e f8ea 4fbd
000002a0: e94e a73d 0da3 35be 1a5d c0bd a7bc 2dbe
000002b0: 1a89 803e f98f 52bd 3d9d 20be 03ab 4fbe
000002c0: 6efd 103e 6b22 2a3d 1c15 04b9 93fa 7f3e
000002d0: 4bf9 59bc 3695 3dbe 9db0 423e e105 553d
000002e0: 581a 923e de75 ddbc 8925 543e 4535 70be
000002f0: c61b 833e 9512 87be b126 36bd d23d 7fbc
00000300: 5eda 3b3e 0ecc 53be 37a7 aa3e ee21 b9be
00000310: cdf3 1dbe 0c3d 843e 4bb6 22be 4313 b43d
00000320: 665b d43b 0dc9 8bbd 6d7c e1bd af10 823d
00000330: 9711 1d3e 0b16 73be 86d1 a33e f584 a33e
00000340: 0459 b2be 9d7c 9cbe 3e46 f9bd 745e 89be
00000350: 1cc9 bdbe ec7f afbe 31cd a23e ce7e 893d
00000360: 4b34 5abd f2bb 7fbe 3984 69be 5de8 85be
00000370: 9f3e dbb9 bad1 b8bc 8268 a33e d33e 993d
00000380: 9998 423e c5c1 153e c0a9 853e c59e 02be
00000390: a38f 8bbe 1b54 8c3e 9134 d3bc e415 973d
000003a0: 9dc0 32bd 0bcb 2fbe 228d 53be 2523 953e
000003b0: 105e e93d 0065 003e 8abe bbbd bdf0 d43d
000003c0: 1ef9 9bbd fc8f 4abe 4838 df3d b1ce bfbd
000003d0: b1eb e2bc f5b6 45be d630 4fbe ba36 fc3d
000003e0: 1257 9d3e 7ed3 cf3e fa74 82be 7587 a53b
000003f0: 231c 42be ce5d 5f3e 132d a4be ce8e b3bc
0.07931387 -0.31417814 0.09398608 -0.23724148 -0.10493767 -0.29169002 0.13722272 -0.091873124
-0.31944835 0.28131396 0.13773587 -0.08439693 -0.019426411 0.00335288 0.07218644 0.3350512
0.029704867 -0.112815775 0.25405586 0.35557666 -0.23622313 0.0991623 0.033591773 0.21323967
-0.17962648 -0.18301898 -0.14285374 0.14173256 -0.29354143 -0.13138257 0.26099592 0.09890573
0.0509088 -0.14152095 0.16324554 -0.041410122 -0.1153129 0.05224346 -0.07861564 0.19981477
0.048582602 0.19628885 -0.16413835 -0.28735843 0.23178291 0.24907249 -0.25370365 -0.262119
-0.27936283 0.022955697 0.10340792 0.29718682 -0.15221338 0.13751814 0.13636158 0.21517664
0.072671 -0.08484667 -0.13499305 0.2720484 -0.19101235 0.07083217 0.046566706 -0.408594
0.23872477 -0.32613847 0.0037258852 -0.12146211 0.1723619 0.1327674 0.241543 -0.15656033
0.17244002 0.10563752 0.044476196 -0.2249359 0.18916412 -0.20200919 0.21153127 -0.17800319
0.1161157 0.12593573 -0.03589524 -0.10860957 -0.20315419 0.18598491 0.17719427 -0.010938645
-0.049626995 -0.043811843 0.013807823 -0.15662028 0.27985036 0.13176829 -0.052291386 -0.099020936
0.23049025 0.23502411 0.05259743 0.16595647 -0.16275422 0.18240258 -0.037842058 -0.1001103
-0.004240776 0.011601597 -0.27109936 -0.39699128 -0.2913606 -0.36388028 0.118466295 -0.28199783
-0.33936143 -0.13159144 -0.32501236 -0.059147287 0.39296952 0.36970687 0.16852741 -0.025221523
0.09438953 -0.28547746 0.19540615 0.08052825 0.1594894 0.072566934 -0.31014913 -0.11750068
-0.12176662 0.004798518 -0.20805322 -0.20725638 0.16376747 0.29421383 -0.15847474 0.3151975
0.25026706 -0.11953462 0.19873787 0.105128415 0.30196047 0.19564 0.24268417 0.21148965
0.034592055 -0.11428442 -0.013894287 0.15521763 -0.014812305 0.052841846 -0.33326188 -0.27860644
0.097915456 -0.19231018 -0.18402095 -0.25345206 0.34357232 -0.123395555 -0.13633078 -0.1593149
-0.008949242 -0.012921175 0.3288157 -0.13724782 -0.07330648 -0.07337171 0.1419642 -0.050761193
0.08169348 -0.1773798 -0.09392758 -0.16966496 0.251046 -0.051406834 -0.15684982 -0.2028008
0.14159176 0.04153673 -0.00012596365 0.2499793 -0.013304065 -0.1851395 0.19012685 0.05200756
0.28535724 -0.027033743 0.20717444 -0.2345782 0.25607127 -0.26381364 -0.044470493 -0.015578704
0.18345019 -0.2068331 0.333307 -0.361587 -0.15425034 0.25827825 -0.15889852 0.087927364
0.006480622 -0.06825457 -0.110100605 0.063508384 0.15338741 -0.23738877 0.3199579 0.31937376
-0.3483354 -0.30563822 -0.12171601 -0.26829875 -0.37067497 -0.34277284 0.31797174 0.06713639
-0.053272527 -0.24974039 -0.22804345 -0.26153842 -0.0004181759 -0.022560943 0.3191567 0.07482686
0.19003524 0.14624698 0.2610607 -0.12755878 -0.27258024 0.27407917 -0.025781902 0.07377222
-0.04364072 -0.17167298 -0.20659307 0.29128376 0.11394894 0.12538528 -0.09167202 0.1039748
-0.07615875 -0.19781488 0.10899407 -0.09365595 -0.027700277 -0.19308074 -0.20233473 0.12315126
0.30730492 0.40591043 -0.2547987 0.005051548 -0.18956046 0.21813127 -0.3206564 -0.02191868

variable_selection.0.bias f4 [64]
00000000: 53e4 46be ca35 d4bb a921 44be bb99 a4be
00000010: 2d41 bf3e df17 843e 9b8b e03d 2a88 c6be
00000020: 030d 0bbe 7111 82bc 291d 24be de59 01bc
00000030: 58c6 42be 4bd1 143e 5c70 c03e 354a cfbb
00000040: 1587 9bbe d8e1 c8be 7486 e63e 6914 6c3e
00000050: f6fa 07be d9fc 1ebe c6c6 7b3d 34f7 99be
00000060: 380e 563e 5ece 773e 8067 a6be 9541 e03d
00000070: f46f 87be 46df 053e d65f a8be 05cd 9f3e
00000080: 1b7e babd 0d9d 683e b6ca 123e 544b 8bbe
00000090: d79e b93e bd4b 3ebe a1c1 88bc a494 b43c
000000a0: b0a7 a23e 6945 e7bd 8a7f 883e 11a6 59be
000000b0: 9032 9b3d 77d5 5ebe 26a3 4bbc 623c a6bd
000000c0: 13c8 6bbe 8f9a b6be 7241 153e 2ff8 c9bb
000000d0: 7610 e93e a984 b83e 1810 aabe cfb7 a6be
000000e0: 5d1b 663e 7424 f03d 87db ffbd 9622 80bd
000000f0: be09 463e 53e0 803e 8e37 9e3e 5219 99bd
-0.19423036 -0.0064761387 -0.19153465 -0.32148537 0.37354413 0.25799462 0.10964128 -0.3877576
-0.13579182 -0.015877457 -0.16026749 -0.007894961 -0.19020975 0.14532964 0.37585723 -0.006325985
-0.30376497 -0.39234805 0.45024455 0.23054661 -0.13279328 -0.15526141 0.061468862 -0.30071414
0.20903862 0.24199817 -0.3250084 0.10950009 -0.264526 0.13073453 -0.32885617 0.31211105
-0.09106084 0.2271616 0.1433514 -0.27205908 0.36253998 -0.1858358 -0.016693892 0.022043534
0.3176856 -0.11292536 0.26659805 -0.21254756 0.075780034 -0.21761118 -0.012429034 -0.08116986
-0.23025541 -0.35664794 0.14575747 -0.006163619 0.4552037 0.36038712 -0.33215404 -0.3256211
0.22471376 0.11725703 -0.124930434 -0.06256597 0.19339654 0.25171146 0.3090176 -0.074755326

variable_selection.2.weight f4 [10, 64]
00000000: c3fe 533c 9842 be3d e425 14bd 79da 31be
00000010: 4cef 0f3e ba65 ce3d 1624 493e 1df2 86bd
00000020: 8b6b 0fbe 7722 36bd e2d7 3e3e 449b 783e
00000030: 88d0 793b 7389 923d 4300 803d a82e 543e
00000040: 506d f5bd 9bae fcbd 704c 7b3e d8dc 753e
00000050: 7860 0a3e 0453 453e b005 04bd d825 2ebe
00000060: 0f85 483c 46ef 6c3e fef7 1ebe 01fa b2bc
00000070: f222 0dbd fcf2 3f3d 20bf 1bbe d9f0 6dba
00000080: 6e64 3cbc fe6f 683d 5952 0c3e 9076 dfbd
00000090: 67f3 1e3e 8177 123e 476d cb3d a925 02be
000000a0: d45f a03d 36ba 0cbd 7293 0e3e 95f0 26be
000000b0: d118 5a3e d714 d63c 4176 edbd 2c05 653d
000000c0: b1e3 96bd f295 0abd 6945 6d3d b3da 353e
000000d0: cf88 0e3e 60cf 50bd 5974 a8bd 49e0 18be
000000e0: 72b3 1d3e d23f 1e3c 195a 143e 8cfd 233c
000000f0: 118b 9f3d 6a22 ee3d d61f 483e 82d0 08be
00000100: bc1d 5dbd e03c b23c 6d96 0abe 6ab6 b13d
00000110: eb21 1bbe ee76 15be 5800 6ebd a84f 113e
00000120: 5303 b5bd 6009 dabd a594 14be b590 55bd
00000130: 2884 7b3d 13f5 333d 9075 36bd 0c20 6f3b
00000140: 2dc3 bd3d 9ede 4b3d 231a edbd 55fa 87bd
00000150: fdc1 09be 7204 913c 026b 8fbd 3f90 5e3d
00000160: 1b75 e1bd 55c9 61bd 7ce0 61bd ce70 823d
00000170: edec 233d a882 16bd 6aee 493d accb 6cbd
00000180: 5115 b2bd 86ba 15be b9b3 1cbd 4be6 233e
00000190: e23f a5bd 3e35 433d b4cc afbd e834 983a
000001a0: 02ea 9cbd e1ba 953d 5476 3abe d34a 2e3d
000001b0: a193 28bd 03a8 5ebd 6c38 2e3d 842b 723d
000001c0: 015e 363d f392 85bd c657 33be 912c 89bc
000001d0: 10b4 18be d5f5 22be feb1 843d b84f 123e
000001e0: 204e 07be bcf7 e4bd 02db b9bd bc99 8c3d
000001f0: b0a0 373d 6802 b2bd 2934 e8bd d0a3 6cbd
00000200: 3b8c c7bd 9073 2f3e e957 4dbd 9602 d53c
00000210: c206 e8bc 00c0 593d a404 e8bd a493 79bd
00000220: 90c9 cf3d 4286 513e fc70 10be 5cb4 4a3d
00000230: 21b2 dbbc 72da 4c3e 74fd 153e ba8f 8cbc
00000240: e4ac fabd 64a4 8c3c e046 ce3d 40bf 01be
00000250: 71ca 06be dbf4 983c b9c8 293e 32e6 21bc
00000260: bbe6 d23d ab76 6a3b 6b46 093d b496 1a3e
00000270: 4afd 083e 6830 c63d c539 e6bc bd4c 383e
00000280: 8482 323e 7853 98bd 283c 87bd ad0e 923d
00000290: 30a1 15be 5c11 983c 2a9d 3c3e 4330 1d3e
000002a0: dae9 81bd e1ec c83d 70d7 a6bc 5acb c23d
000002b0: 7e03 16be 5c3e b13d acfc 2a3e 2484 cfbd
000002c0: 9d53 333e 9636 a3bd 2291 e23d f410 34be
000002d0: a305 87bd e207 3f3e d731 1fbe ea1b d53b
000002e0: ccf8 453d 6df3 8abc 08b3 a6bd 92a0 9a3d
000002f0: e8b7 03bb 58e7 11be 5750 233d b215 1d3e
00000300: 2849 a3bd 3f76 14bd 5dde c73d 4279 c9bd
00000310: 295e 093e 3db1 44bc 26cc 0ebe 4672 a5bd
00000320: 30da 3ebd f06c fd3d f6f9 eabc bcb8 623d
00000330: 9be7 3a3d ab49 933c eb2c c2bd eb60 69bd
00000340: da77 46bc 3c8a f6bd c28c 7b3d 5555 a53d
00000350: f0c2 fcbd f29b 4a3d 9852 cfbc 6b34 e2bd
00000360: 3e4e 823d 8846 463c b6d7 24be e3c4 893d
00000370: a51b b73c 3476 d73d dfa5 d03d 5014 b03d
00000380: ca4f bc3d c14a 803d 0c54 b43c fc51 97bd
00000390: c671 223d a8e6 cfbd ec47 c43c e3f7 02bd
000003a0: e764 26bd 407e a8bd ad06 86bd d25f 00bd
000003b0: c420 e9bd da20 1a3d e6fb 11be 8cc7 bb3c
000003c0: 9eb9 afbd 56a7 1c3d 41ef 9e3c 8762 6f3d
000003d0: 6529 1f3e 1968 9d3d 58d2 843d eb27 47bd
000003e0: d307 1c3d 9b03 123d 6eaa d5bd d151 163e
000003f0: 0929 83bd d982 033e b4f4 38bd c36a 4f3b
0.012939158 0.092900455 -0.036168948 -0.17368497 0.14056128 0.100779966 0.19642672 -0.06589148
-0.14005868 -0.044466462 0.1863704 0.24277979 0.003811868 0.071551226 0.0625005 0.20720923
-0.1198374 -0.12337991 0.24540877 0.24010026 0.13513362 0.19269949 -0.032231987 -0.17006624
0.012238755 0.2313815 -0.15524289 -0.021847727 -0.034457155 0.046862587 -0.15209627 -0.00090767216
-0.011498554 0.05674743 0.13703288 -0.10911286 0.15522538 0.143034 0.099329524 -0.12709679
0.07830778 -0.034357272 0.13923433 -0.16302712 0.21298529 0.026132984 -0.11594821 0.055913135
-0.073676474 -0.033834405 0.057927523 0.17759208 0.13919376 -0.05097902 -0.082253166 -0.14929308
0.15400484 0.009658771 0.14487495 0.010009181 0.07790197 0.11627658 0.19543394 -0.1336079
-0.053983435 0.021757543 -0.13533945 0.08677371 -0.15149657 -0.1459615 -0.058105797 0.14190543
-0.08838525 -0.106463194 -0.14509828 -0.052139957 0.06140533 0.043934893 -0.04454571 0.0036487607
0.092657425 0.04977285 -0.11577251 -0.06639544 -0.13452907 0.017702315 -0.07002832 0.054336783
-0.11008664 -0.055123646 -0.055145726 0.06369172 0.040020872 -0.036745697 0.049299635 -0.057811424
-0.08695472 -0.14621934 -0.038257334 0.16005819 -0.08068825 0.047658198 -0.08583966 0.0011612447
-0.07661821 0.07311035 -0.18209201 0.042551827 -0.041156415 -0.054359447 0.042534277 0.05912353
0.044523243 -0.06522169 -0.17513952 -0.016744884 -0.14912438 -0.1591409 0.06479262 0.14288223
-0.13213396 -0.11180064 -0.090749756 0.0686526 0.044830978 -0.08691865 -0.11338074 -0.05777341
-0.09743544 0.17133927 -0.050132666 0.02600221 -0.028323535 0.05316162 -0.1132901 -0.060931817
0.10145867 0.20461372 -0.141056 0.04948841 -0.026818337 0.20005205 0.14647466 -0.017158378
-0.122400075 0.017168231 0.10072112 -0.12670612 -0.13163163 0.018671444 0.16580476 -0.009881543
0.102979146 0.0035776298 0.03351442 0.15096551 0.13377872 0.096772015 -0.028103719 0.17998023
0.174326 -0.074377954 -0.06603271 0.071317054 -0.1461227 0.018562965 0.18419328 0.15350442
-0.06343432 0.09810806 -0.0203664 0.095114425 -0.1464977 0.08654472 0.16697949 -0.10132626
0.17512365 -0.07969396 0.11062838 -0.17584592 -0.06592872 0.18655351 -0.15546356 0.0065035718
0.048332974 -0.016961778 -0.08139616 0.075501576 -0.002009863 -0.14248407 0.03987154 0.15340307
-0.07972938 -0.03624558 0.09759209 -0.09837581 0.13414825 -0.0120051475 -0.13945064 -0.080784366
-0.0465948 0.12374294 -0.028683644 0.055351958 0.045631032 0.017979464 -0.09481224 -0.056977194
-0.012113536 -0.12038085 0.061413534 0.080729164 -0.12341869 0.049465127 -0.025307938 -0.11045154
0.0636258 0.012101777 -0.16097912 0.06727006 0.02235205 0.10520592 0.101878874 0.08597624
0.09194906 0.06264258 0.022012733 -0.07388684 0.039659284 -0.10151416 0.023960076 -0.031974684
-0.04062357 -0.08227205 -0.06544242 -0.03134138 -0.11383203 0.037628986 -0.14256248 0.0229223
-0.085803255 0.03824552 0.019401195 0.058443572 0.15543135 0.07685871 0.064854324 -0.048622053
0.0380934 0.03564797 -0.104328975 0.14679648 -0.06404311 0.12842883 -0.045155242 0.0031649328

variable_selection.2.bias f4 [10]
00000000: 3f4b 923e a279 053d b35b 763d a9fe 083e
00000010: 5373 87be 5dde 26be c3f1 5bbe cfaa 7ebd
00000020: e942 de3d 7c4c 0d3e
0.28573033 0.0325867 0.060146045 0.13378395 -0.26455173 -0.16295762 -0.21478944 -0.062174615
0.10852606 0.13798708

lstm.weight_ih_l0 f4 [256, 10]
00000000: df90 313e a37d 833d ecea 333d 1969 e33c
00000010: a98d edbd cf1d 273e ee30 74bd 8749 4bbd
00000020: 162d 303e 1036 29bd 78c0 79be e946 92bd
00000030: a506 2abe a796 c7bd 7685 283d 2b00 36be
00000040: 1532 f8bd c117 693d fbfb ffbc d1db adbb
00000050: 122b 9abd f77d c7bd cb74 593d 4c72 f03b
00000060: 2e9a d63c afa7 1abd b0d0 5c3d 8680 6dbd
00000070: 3e31 14bd d477 c2bd 943c 083d 2bf5 15be
00000080: 34d4 0c3e 7196 c73a ff34 0ebe 05cb 45bd
00000090: c3ce c0bd 9330 fc3d bf2a a5bd 8212 a3bd
000000a0: 5bdc 003e 6f50 a13c 06c5 4e3e ccd0 1b3e
000000b0: d8f1 3ebc 77c2 4cbd 38bb 28bd f440 d93c
000000c0: 03df 633d 7093 a93d f830 8fbd 2bc1 ffbd
000000d0: be95 23be 1037 c23d b145 8cbd 4a0d 56bd
000000e0: f337 2a3c 2cb9 0cbd 4418 09be c359 943c
000000f0: cc0c 8abc 44a8 0cbd b166 d83d b518 f23d
00000100: 2493 463c 4810 2bbd 39f6 d33d 686b 013e
00000110: e3cc 0a3d 5519 933d 295d 84bd 2997 21bd
00000120: 4097 3bbe 3054 8dbc 3b21 ab3d ccfc e9bd
00000130: 6ef8 063e 078d 9b3d 5530 4abe c867 98bd
00000140: 6489 e2bd 63db 09be 2648 19bd 33b7 e03c
00000150: 4019 a93c e906 f5bd 6adf 4e3d 7662 55bd
00000160: eed9 58be 7e95 4bbe e804 90bd 862e 713c
00000170: a142 283e ec53 983d a033 9ebd 48f1 febd
00000180: 1236 f5bd 6a57 d6bc 00f9 b53c 267b eb3b
00000190: f204 a1bd c18c e8bd bef6 d7bd ab30 1bbe
000001a0: 311b 72bc 32d5 17be 7ee0 4abc 7f60 fa3d
000001b0: 5529 a7bc 2a26 32be b7c7 b13d b325 983b
000001c0: f00e 043d adbd ab3c 235d 2bbd 65ea 993d
000001d0: 04fb 67bd 0381 d9bd f5fe 803d eede 63bd
000001e0: 4f94 33be dcf0 bdbd 9a8b 50bc 8b8a a33d
000001f0: e734 1abe 0ca8 a9bd 7ccc febd afec febb
00000200: 536b 793c ccc3 cd3c fb8d 52bc 886c cf3d
00000210: 5e9b 143e 826f 8ebd 4b4d 3e3c 50b8 d13d
00000220: b2f6 1cbd cb94 fbbd 9bad 123e ae1d 113e
00000230: 4771 41bd 50da 0fbd 28c7 2f3d 83b9 afbc
00000240: 8a74 c0bd 2192 babc 46fa a73d be59 193e
00000250: 64f7 14be 6084 96bb fc94 153d 2b5e 01be
00000260: 8e5e 6fbd 5f78 2bbe 76e8 b6bd b883 99bd
00000270: ba32 4cbd 711b 5d3d fce6 a0bd 719f cb3c
00000280: bc5d 443d 9069 2b3d 845d 263e 36e0 003e
00000290: 673a b93d db47 1dbd 860d 333c c2cf 503d
000002a0: d340 0d3e f9f8 cabc 79a5 ce3b 7125 d63d
000002b0: dad9 433d 6583 f0bd ad21 f7bd 674c 623b
000002c0: dbbd 07bd c168 bc3c 9959 71bd 1d50 b93d
000002d0: 18df a2bb 9d11 00be 456c 213e bfde edbd
000002e0: 5873 853b c7b0 3dbd fbc6 dc3d 51fc 87bd
000002f0: 9154 043d 1835 bf3d 725c 313d 9e2e c53d
00000300: 3591 9e3d edce 293c c4ff 4cbd fcf2 38bd
00000310: 61dc b2bd 0a81 7c3d 7bee e43c 957a 093e
00000320: 079a a3bd 4653 983b 5fd6 633d d617 d1bb
00000330: e9ac 433b 13f7 d8bd 1e0b 03bd 89a3 0bbc
00000340: 7648 11be 5277 99bc 61ad 2abd 9bb1 1fbb
00000350: 33eb a53c 436f f2bd 1e62 6cbd 5d30 303c
00000360: 554b cebd 27d6 74bd d8d8 06bd 8fde b9bd
00000370: 05ee d83b 5fc2 4b3d 7c7f f9bd 5ed4 72bd
00000380: 02a9 cc3d 0b6c d53c ecc9 fc3c 1949 e93c
00000390: 9724 413c f61b c8bd 0537 2ebe 18b6 853d
000003a0: 571b d3bc 2bb4 e7bd ab5b e9bd a913 ef3b
000003b0: bea7 063d 1cd5 c3bc 7291 abbd a1a3 8d3d
000003c0: d580 9a3c caf5 87bd 13cb 66bd 5ddf 223d
000003d0: 15b0 80bd 79fa 80bd 8673 20bd 44c8 d73d
000003e0: 70d5 ee3d d7e9 c13d 3c49 33bd 0e73 51be
000003f0: 5ed2 f8bd f768 37bd f479 09bd d728 09bc
0.1734042 0.06420448 0.04392521 0.027760075 -0.11599285 0.16319965 -0.059616975 -0.049630668
0.17204699 -0.041311324 -0.24389827 -0.07142431 -0.16604097 -0.097455315 0.041142903 -0.17773502
-0.121189274 0.05690742 -0.031248083 -0.005305745 -0.07527746 -0.09740823 0.053089898 0.007337844
0.026196565 -0.03775757 0.053909957 -0.057983898 -0.036179774 -0.09495512 0.033260897 -0.14644305
0.13752824 0.001522733 -0.13887404 -0.048289318 -0.09414437 0.12313952 -0.08064794 -0.079625145
0.12584059 0.019691674 0.20192346 0.15216368 -0.01165434 -0.049990144 -0.04119417 0.02652023
0.055632602 0.082800746 -0.06991762 -0.12488016 -0.15975091 0.094831586 -0.0684923 -0.052258767
0.010389316 -0.03435628 -0.13388163 0.018109208 -0.016851805 -0.034340158 0.10566462 0.11821119
0.012120042 -0.041763574 0.103496976 0.12638628 0.0338868 0.07182566 -0.064630814 -0.0394508
-0.18319416 -0.017252058 0.083559476 -0.1142517 0.13180706 0.07595258 -0.19745 -0.0744167
-0.110613614 -0.13462596 -0.03742232 0.027431106 0.020641923 -0.11964209 0.050506033 -0.052095853
-0.21176884 -0.19881245 -0.07032186 0.014720565 0.16431667 0.07437882 -0.077246904 -0.124483645
-0.11973204 -0.02616473 0.022213459 0.0071863113 -0.07862271 -0.11354972 -0.10545109 -0.15155284
-0.014776991 -0.14827421 -0.012382625 0.122254364 -0.02040545 -0.17397371 0.08680671 0.004643166
0.032240808 0.020964468 -0.04183687 0.0751541 -0.05663587 -0.1062031 0.06298629 -0.055632524
-0.17537044 -0.09274456 -0.012728596 0.07985409 -0.15059243 -0.082840055 -0.12441346 -0.0077796797
0.015223342 0.025117777 -0.012851234 0.101281226 0.14512393 -0.06954862 0.011615108 0.10240233
-0.038321204 -0.122842394 0.14324038 0.14171478 -0.04722717 -0.03512031 0.04291454 -0.021450764
-0.09397228 -0.022774758 0.08202033 0.1497564 -0.14547497 -0.004593417 0.036519036 -0.12633578
-0.058439784 -0.16745137 -0.08931057 -0.074958265 -0.049853064 0.05398125 -0.07856557 0.024856301
0.047940955 0.04184872 0.16246611 0.1258553 0.090443425 -0.038398605 0.010928517 0.050979383
0.1379426 -0.024776923 0.006306347 0.1045636 0.04781518 -0.117438115 -0.1206697 0.0034530403
-0.033140045 0.02299917 -0.058923338 0.090484835 -0.0049704425 -0.12506719 0.15763958 -0.11614751
0.004072588 -0.046311166 0.1078014 -0.066399224 0.03230721 0.09336299 0.043301053 0.09628032
0.0774254 0.010364276 -0.050048605 -0.045153603 -0.0873344 0.0616465 0.027945748 0.13425668
-0.07988363 0.004648599 0.055624362 -0.0063810153 0.00298577 -0.10594001 -0.031993024 -0.008522877
-0.14187798 -0.018733654 -0.041669253 -0.0024367336 0.020253753 -0.11837628 -0.05771076 0.010753718
-0.10072962 -0.059774544 -0.032921642 -0.09075653 0.006620171 0.049745914 -0.12182519 -0.05928456
0.09993173 0.026052495 0.030858003 0.028477238 0.011788509 -0.09770958 -0.17013176 0.06528872
-0.025769873 -0.11313661 -0.113944374 0.007296045 0.032874815 -0.02390533 -0.08377351 0.06915975
0.01886026 -0.066386774 -0.05634601 0.039763797 -0.06283585 -0.06297774 -0.03917267 0.105362445
0.11661804 0.094684295 -0.043771014 -0.20454046 -0.12149499 -0.044777837 -0.03356357 -0.008371553

lstm.weight_hh_l0 f4 [256, 64]
00000000: 1f09 ecbd 657e e93c d0b6 e93d 59c4 79bc
00000010: f76c 93bd 82d8 043e 6e7d d3bd 403f 64bd
00000020: f7b3 1bbe e6ed 633d a26a 703d 5e1d 633c
00000030: a244 c3bc eff2 82bd 07ae 203e 8182 2bbe
00000040: e3b3 56bd 2dfd 15be 5bf7 903b c14b 9a3a
00000050: 2c89 7b3d 37a8 273d 1841 a6bd b291 86bd
00000060: ecd2 973d da75 1c3e 05f8 e23d 593e c8bd
00000070: aa24 b1bd 7ff8 0cbe a908 fcbb 6fde 82bd
00000080: e0a4 253e 0aec a3bd 30f9 54bd 3eb9 f9bd
00000090: 0308 5c3d 0072 463d 323e 4bbd 5efc 733d
000000a0: 1880 eebd 4ea0 6f3d 98bf 11bc 4ed6 a53d
000000b0: dd84 3cbd dd3b a43c 3fe3 053e 851a 2b3d
000000c0: e5b2 8e3d 4d0a 03be 8746 a5bd 40a6 68bd
000000d0: ab0e bf3c 6e40 493d 9d04 5dbd 3968 9e3d
000000e0: d507 5c3d a7ec 893c 51ec 27bd 163f 843c
000000f0: 9a78 d83c abe7 623d b34e 28be 55a0 2a3e
00000100: 076f 943d eb28 febd 9a64 c73d 7c8d f33b
00000110: fab6 f53d afc0 84bd 6164 c8bd 4bab fe3d
00000120: c405 c4bd 6b89 533c d5fd 5f3c e3a8 f8bc
00000130: 4271 8a3d 7f71 01be a0bd 933d 18da 8d3d
00000140: 1c42 083b b479 af3d 575c a43d 53b1 71bd
00000150: 53a2 6a3d 902a b7bd 50ba f03d 60b9 4e3b
00000160: ae82 03be 0a67 64bc 8aa2 f6bc fe86 803c
00000170: 869b 973d 6fc4 913c 112b 083d 71ab b3bc
00000180: 4c89 843d 479a 5bbd d7cf a0b9 1065 163e
00000190: 68cd a5bc 08ad e33b e8c6 003e afec afbd
000001a0: 9f97 0b3e 72a2 02be 2c1c a93d 43f5 9abd
000001b0: 42de b5bd 6f19 113d 6c52 cf3d 3103 0d3c
000001c0: cf3f 1abd dbe7 783d 0d79 9e3d 9e57 58bd
000001d0: 83da 87bc 4261 833d 4ac4 b7bd f227 003e
000001e0: c88f 54bb ab1a fa3d c510 833d c116 81bd
000001f0: c15a 92bd 46e0 52bd 71be 2d3d d128 88bd
00000200: d0cc 9abd 83f8 17bc bafb d0bd f9a9 a9bd
00000210: 2851 32bd e089 24bc 2062 2fbd 6829 703d
00000220: a38a 2bba 44bb 0f3d 76fb 20bc 4df9 f23d
00000230: 8702 27ba e03c b1bd 7612 b9bd c5da fd3d
00000240: 02d0 9abd 05f2 3f3d 0ee8 b53d cffa b7bd
00000250: 6ac1 1abe d96f ec3d f9c2 0f3e c01f 24be
00000260: 68ce e93a 031d e7bd d2f1 36bd 607f 833d
00000270: 5669 763d f2b5 33bd d442 ea3c 9287 bdbb
00000280: b4ea f83d dee4 81bd 9c52 3f3d cb4c 093c
00000290: 80e6 103d fd09 c73c 5e1a f5bd 75fb 56bd
000002a0: 8b41 2a3e 9b98 86bd a7a2 8a3d cee0 c8bd
000002b0: 6408 d3bd 1112 2dbd 39f7 b2bb f7ab 0c3e
000002c0: cfe9 88bd f8da 273c 6494 073e aaef acbd
000002d0: d015 19bd d411 19ba 2b72 c53d b6ce f439
000002e0: cb6e 243e 38f0 2e3d 8e8d 7abd 13f0 09be
000002f0: 4352 13bd d041 05be fb19 e4bd caca 31bd
00000300: b23b 5c3d e597 90bc 2bcb 10be 0a1e c53d
00000310: c611 9abb b392 42bd 3677 64bd 3023 babc
00000320: 0e6c 003e daae bdbd 6e7e d8bc 2b70 873c
00000330: 6b3b 013e f427 30bc c2b6 d7bd 19fa 283e
00000340: 1c3b 8dbc a4c2 8ebd 6184 97bd 09df 593c
00000350: 5a2b 34bd 682d 67bc 3d82 2d3e 3103 86bd
00000360: 28bd 5a3d d4c7 f4bd aad6 63bd a555 bd3d
00000370: 7dba 1e3c fa78 ba3b b1a0 ab3d 9117 b53d
00000380: 635d 303e c9ba 58bd c9e2 8f3c 0681 2dbc
00000390: c311 76bd a739 93bd 9fe5 2e3d 43fd 703c
000003a0: e762 cabb 467e fa3d 5603 64bd e2b7 893d
000003b0: 18f6 533d 212b 17bd 488e b1bd 6391 0cbb
000003c0: 4237 51bd 765f b53c 5097 16bd 6e68 de3d
000003d0: e56d 353e 7d60 043b a098 323d d39b e7bd
000003e0: 65d9 873c 4052 8c3c 6de7 953c 91f2 0b3d
000003f0: e481 8ebd 029d 213d 87fb 93bd cd33 7c3d
-0.11525177 0.028502652 0.11411822 -0.015244567 -0.07198518 0.12973216 -0.10326658 -0.055724382
-0.1520537 0.0556468 0.058695443 0.013861982 -0.023836438 -0.06393992 0.15691386 -0.16749002
-0.052417647 -0.1464736 0.0044240183 0.0011771844 0.061410114 0.040931907 -0.081178844 -0.06570758
0.07413277 0.15279332 0.11082462 -0.09777517 -0.08649571 -0.13766669 -0.007691462 -0.06390082
0.16176176 -0.08004005 -0.051995456 -0.12193535 0.053718578 0.048448563 -0.04961986 0.059566848
-0.11645526 0.058502488 -0.008895777 0.08097516 -0.046025146 0.020048076 0.13074969 0.041773338
0.06967715 -0.12796898 -0.08070093 -0.056799173 0.023322424 0.04913371 -0.053959478 0.07734723
0.053718407 0.016836477 -0.040996853 0.016143363 0.026424695 0.055396717 -0.16436271 0.16662724
0.07247739 -0.12410148 0.09735985 0.0074326377 0.11997791 -0.06482064 -0.09784771 0.12435015
-0.09571412 0.012911181 0.013671358 -0.030353969 0.067598835 -0.12640952 0.072139025 0.06926364
0.0020791357 0.08568135 0.08025425 -0.059007 0.05728371 -0.08943665 0.11754286 0.0031543598
-0.12842819 -0.013940582 -0.030106802 0.01568937 0.074027106 0.017793862 0.033244196 -0.021932336
0.064715 -0.053613927 -0.0003067243 0.1468699 -0.020239547 0.006948117 0.12575877 -0.08590066
0.13632058 -0.1275728 0.082573265 -0.07566311 -0.08880283 0.035424646 0.101231426 0.008606718
-0.03765851 0.06076799 0.07737932 -0.052817933 -0.016583687 0.06415035 -0.08972986 0.12515238
-0.0032434333 0.12212118 0.06399683 -0.06303168 -0.07146216 -0.051483415 0.042417947 -0.0664841
-0.07558596 -0.009275558 -0.10204263 -0.08284373 -0.043534428 -0.010042638 -0.04281819 0.058633238
-0.0006543791 0.0350907 -0.009825578 0.118639566 -0.0006370921 -0.08654189 -0.09036724 0.123952426
-0.075592056 0.046861667 0.088821515 -0.08983385 -0.15112844 0.11544771 0.1403922 -0.16027737
0.0017838003 -0.112848304 -0.04466421 0.06420779 0.06015905 -0.04387469 0.02859632 -0.0057839835
0.12154141 -0.06342481 0.04670964 0.008380125 0.035376072 0.024296755 -0.1196792 -0.0524859
0.16626565 -0.06572076 0.06769305 -0.09808503 -0.10304335 -0.042253558 -0.0054616 0.13737474
-0.066852205 0.010245077 0.132402 -0.0844415 -0.037374318 -0.00058391434 0.096409164 0.00046693318
0.16057889 0.04270956 -0.061170153 -0.13470487 -0.035967123 -0.13013387 -0.11137768 -0.043406285
0.053767867 -0.017650554 -0.14140002 0.0962487 -0.004701826 -0.047503185 -0.05577775 -0.022721857
0.1254122 -0.09261866 -0.026427474 0.016532978 0.12620322 -0.010751713 -0.10532905 0.16501655
-0.0172401 -0.069707185 -0.07398296 0.013297805 -0.043986656 -0.014109947 0.16944213 -0.065435775
0.05340305 -0.11952177 -0.05562464 0.09244851 0.009688017 0.005690691 0.08380259 0.088423856
0.17223124 -0.052912507 0.017564194 -0.010589844 -0.060075533 -0.07188731 0.042699452 0.01470882
-0.006176341 0.12231116 -0.055667244 0.06724526 0.051748365 -0.036906365 -0.08669716 -0.0021448962
-0.05107809 0.022140246 -0.036765397 0.10859762 0.17717703 0.0020199113 0.043602586 -0.11309018
0.016583154 0.017129064 0.018298829 0.034166876 -0.069583684 0.039456375 -0.072257094 0.06157284

lstm.bias_ih_l0 f4 [256]
00000000: 130e 8dbd cabf 743d 5eb4 193e db11 443e
00000010: 55ce 00bd 8e66 92bd 7ad8 9dbc 2e7e 143e
00000020: 2fc6 d9bb 7ba4 623e 7308 953d 61c5 f33d
00000030: c848 0e3d 78e3 51bc ce63 eabb 2c92 e23d
00000040: b4bc 6dbd 7485 973d cf8a 423e b035 acbd
00000050: 345b ba3d e435 ea3d e246 98bd 2bd4 36bd
00000060: edbe 36bd ce4a 413d ca8b 35bd 8307 e6bc
00000070: f553 c23d 3fb1 0a3e a2fb aebd b2dc 353e
00000080: f906 adbd e5fb 983d 89e2 a1bd 15c8 153e
00000090: 9190 123c bd57 5dbd 9770 833d b230 c83d
000000a0: b77d 703e aba0 c7bd aea1 b63d ecfb 44bd
000000b0: 2909 ec3c 6625 ed3c 3171 153e 0b67 91bc
000000c0: e70f f23d 1de7 d83d dddc 023e ecb3 cc3d
000000d0: f8f7 3d3b ad4c 2b3e d05e b73d 1057 1a3e
000000e0: 1578 98bd c48b 5bbc ff41 b5bd 3e86 833d
000000f0: 04ae 4ebd db10 21bd f9fa 0cbd 6b45 053e
00000100: a29c 903d 69e9 0dbc ce55 91bd 8bfd 183e
00000110: 4d01 833d 71f2 48bd ea96 113e b0e8 acbc
00000120: 8af5 113e 774e f43d 5a85 613d 56f2 5bba
00000130: 6cd4 b9bc c6eb cd3d 6ce9 cc3c 56cb 143e
00000140: c068 073e 824b e6bb 32d9 2c3d fe7c f53d
00000150: 2910 9fbc 562d 3e3e 9ea2 c8bc 0d4d 273c
00000160: a341 b83d 7b8f f13d 6829 cc3c c32e 83bd
00000170: b178 233e 7876 4f3d f020 9abd b44a 003e
00000180: 3119 eb3d e778 a93c 6f22 1cbd ad82 ffbc
00000190: 47f3 ba3d dbb8 263c f1be 083d 602d 903d
000001a0: 6454 723e b896 f73d 813b 063e 8a2b d23d
000001b0: 8515 2c3e 25c4 d43d 1bb7 2dbd 7859 ce3d
000001c0: 4457 98bc 65cd 5c3e baa5 fc3d ecab 76bd
000001d0: 028a 0abb 464c b2ba 53b2 67bb e8d3 dc3d
000001e0: e46a 46bd 5489 97bc 7a10 23bc bec5 c43c
000001f0: 8e0f de3d 12ac aa3d f6b1 133e 2cfe 31bd
00000200: c3e0 03be de90 7a3a c7f7 eebd 34bb 0bbc
00000210: 30dc c43c af51 c4bd dfe4 89bd 96d8 adbd
00000220: bced f73c cf9c bfbc b837 46bc 6872 433d
00000230: 104b 1e3d 2d20 b93d 6570 a43d c1bd b63d
00000240: ed16 f7ba f2ef 8d3d 4707 7bbd 8c73 07be
00000250: 79a6 39bd b360 fb3b fce6 783d cba6 cbbd
00000260: a9dc eb3d 472f f9bd a774 3bbd eca0 a13c
00000270: 6934 243c bc10 593b b2e9 d4bd b5cb 5fbd
00000280: 4102 9b3d bd99 bdbd 5698 75bc b9a4 94bd
00000290: ffc0 be3d 7d81 f1bd b814 c9bd bda6 fdbd
000002a0: c3f6 91bd 4816 183e 31b6 dcbc 84f5 793d
000002b0: a017 993d 2694 f23c c51b f3bb 730e 0d3e
000002c0: 2cd3 d33d bf3e ed3d f85c 753d b72f b2bd
000002d0: 4c24 033e a043 f83d 2221 173e 22ec 6bbd
000002e0: fec4 073e f3fb 0c3e 946c a2bd c068 bcbd
000002f0: 019e 733d a7a7 8bbd 8e6d aebb a359 adbd
00000300: 3f24 26bc 554b 6c3d ff3f eaba e271 243e
00000310: 3389 763d ed27 013e dce8 143d d762 a93d
00000320: 70ae b43d 4af0 323d 1dc2 60bd 6c50 75bd
00000330: f149 ac3b 8990 5d3d eca7 72bd 11f2 ee3d
00000340: 7fff 2b3c f384 fb3c 1b06 4c3e 5a2b b03d
00000350: b295 00bd 644b 6ebc 8079 09bc 83cf ccbd
00000360: 85f0 453c 608e 35bd 4bed 233d 5f66 233e
00000370: a613 09bd cd70 013e c031 c33d f307 333e
00000380: a9b7 a4bd 48f7 5bbd 7445 36bd 2ca7 cf3d
00000390: ca58 da3c 0d61 7e3d c2ae 193d 1ffb 1dbd
000003a0: 7873 3f3e 51f8 16bd 5c26 1b3d 8bca e73d
000003b0: 03c7 49bd 6fac 023e 8571 53bd dfca ef3d
000003c0: 0b7b 18bc 1117 1e3d 28e3 76bd 05d3 c53d
000003d0: 3be4 4fbd 1c32 093e 3f33 fbbb 76ee 3d3d
000003e0: 6c98 fb3d 3542 0bbd b75b f9bc 7e44 54bd
000003f0: 15e3 863d ceab 163e 070a 74bd b2d1 803d
-0.0688745 0.059753217 0.15010211 0.19147436 -0.031446774 -0.07148467 -0.019268263 0.14501259
-0.00664594 0.22133057 0.07277002 0.119028814 0.03473738 -0.01281058 -0.007153011 0.11063036
-0.05804129 0.07398501 0.18998264 -0.084086776 0.09099427 0.1143606 -0.07435395 -0.044635933
-0.044615675 0.04719048 -0.044322766 -0.028079754 0.0948867 0.13544177 -0.08544089 0.1775997
-0.084485956 0.0746992 -0.07904536 0.14627106 0.0089456 -0.054038752 0.06417959 0.09774913
0.23485456 -0.09747442 0.08917557 -0.048091814 0.028812962 0.028948497 0.1459396 -0.01774933
0.118194394 0.10590956 0.12779565 0.09995255 0.0028986912 0.16728468 0.08953631 0.15072274
-0.07444779 -0.013400022 -0.088504784 0.06422089 -0.050458923 -0.039322715 -0.034419034 0.13014762
0.07061125 -0.008661606 -0.07096444 0.14940469 0.063967325 -0.049059335 0.14217725 -0.021107048
0.14253822 0.119290285 0.055058815 -0.0008390298 -0.022684298 0.10054736 0.025013648 0.14530692
0.13223553 -0.007028044 0.04219932 0.11986731 -0.019416885 0.18571982 -0.024491604 0.010211241
0.08996894 0.11794945 0.024922088 -0.064054035 0.15964009 0.05065009 -0.075258136 0.12528497
0.11479414 0.020687534 -0.038118776 -0.03119024 0.09128433 0.010175909 0.03338522 0.070399046
0.23665005 0.12089294 0.13108636 0.10262211 0.16805084 0.10388974 -0.04241095 0.100756586
-0.018596299 0.21562727 0.12336297 -0.06022255 -0.0021139388 -0.0013603054 -0.0035354092 0.107826054
-0.048441783 -0.0184981 -0.009952659 0.024020072 0.108428106 0.08333601 0.14423355 -0.043455288
-0.12878709 0.000955833 -0.116683535 -0.008528519 0.024030775 -0.095858924 -0.06733107 -0.08488576
0.030264728 -0.023390202 -0.012098245 0.04771653 0.038645804 0.0903934 0.0802925 0.089229114
-0.0018851437 0.069305316 -0.061286237 -0.13227671 -0.045324776 0.0076714396 0.06076716 -0.099439226
0.11516697 -0.121672206 -0.045765545 0.019730054 0.010022261 0.0033121547 -0.10396136 -0.05463763
0.07568789 -0.09257839 -0.014989933 -0.07257981 0.09314155 -0.11792276 -0.09818405 -0.123853184
-0.07127144 0.1485225 -0.026942344 0.061025158 0.07475209 0.029611658 -0.007419082 0.13775043
0.10343012 0.115842335 0.059903115 -0.08700507 0.12806815 0.121222734 0.14758733 -0.05759824
0.1325874 0.13767986 -0.07930866 -0.09199667 0.059476856 -0.068190865 -0.0053231185 -0.084643625
-0.010140478 0.05768903 -0.0017871856 0.16059068 0.060189437 0.12612887 0.036354885 0.08270805
0.08822334 0.04368619 -0.05487262 -0.05989115 0.005257838 0.054092918 -0.059242174 0.11667264
0.010497927 0.030703044 0.19924204 0.08602019 -0.03139276 -0.014544342 -0.008390784 -0.10000517
0.01208127 -0.044325233 0.040021222 0.1595702 -0.033466004 0.12640686 0.095309734 0.17483501
-0.08042843 -0.053702623 -0.04449983 0.101393074 0.026653666 0.062104274 0.037520178 -0.038569566
0.18696392 -0.036857907 0.03787838 0.11317929 -0.049262058 0.1276109 -0.051621933 0.117086165
-0.0093066795 0.038596217 -0.060275227 0.096593894 -0.050754767 0.13398021 -0.007666021 0.046369992
0.122849315 -0.033998687 -0.03043924 -0.05182313 0.06586281 0.14713976 -0.059579875 0.06289996

lstm.bias_hh_l0 f4 [256]
00000000: c768 0c3e 3a26 bd3c 289d 213a efd6 c7bc
00000010: 22cf 05bd 73b4 6c3d 2a00 273d 7648 043d
00000020: 218a c03d 3d00 b13c 972a f63c 82fd 94bd
00000030: 6c76 aebc 8bd5 cfbd 9209 873c daa7 0a3e
00000040: 4566 ec3d 8535 143d 986c 213e eb0f df3d
00000050: 131e 063e 10be 263e 1a66 b63d d240 d33c
00000060: fe85 5c3d 680b e93d 00ca a13d 6251 113e
00000070: 878b d0bc 6a49 26bd a847 9f3b d55e 883d
00000080: 0c50 84bd 145d 373d de8a b63d 9dd9 1b3a
00000090: 08e3 43bd 152f 383d dc86 613c 9049 5f3d
000000a0: f62e 753e ca4b 603d d368 0f3d 7f93 cabc
000000b0: 26c8 74bd 0d55 d9bc 5326 1b3e a077 1e3e
000000c0: ff6c c43d 1ecd 523e 6741 22bd 35f8 0bbc
000000d0: 991f 6dbd 34e4 1c3e ef69 2b3e 9445 7bbb
000000e0: 6132 583b 340d 10bd 2fd8 58bd f572 3f3c
000000f0: 6fe5 d93d 7d61 383d 8893 b33d 5be6 0d3e
00000100: a304 3e3d fb44 20bd ca9e e53d 3524 003e
00000110: d0b6 df3d 0fb9 84bd 5f89 123e 55f2 7ebd
00000120: 64ae ba3d 0a8b fc3d a562 d53d ec3b 083e
00000130: c1e0 8dbd 50a7 fe3d 96a0 343c 485a 28bd
00000140: ef4f dabd 0430 0b3c e132 123e 80f2 d43d
00000150: b3d0 153e 77cb fb3d 472e 8ebd ebbd 0e3e
00000160: 1dbf 873d 0908 163e 9fb3 92bc a9db edbb
00000170: 4c49 233d 78f0 99bd 5ddd 56bc 40e0 273e
00000180: bb3e b7bc 4838 b03d 7c0b d73d b64e ab3d
00000190: 1f36 a5bc 68fe fcbb 7bd0 42bd 4db4 ef3d
000001a0: 5073 9b3d 7d7c 8cbd e91f 11bd 1312 843d
000001b0: d038 5c3d 6bee 153c c19f 23bd eb0e 18bd
000001c0: fd1f 133d f20a 8f3d 3bb6 553d 0576 3b3d
000001d0: 6274 1dbc 34e6 043e 3310 e0bc 7488 d03d
000001e0: 0445 41bb e186 23bc 49ff 0c3d e87c 81bd
000001f0: 7efc afbd 3fe6 40bd b2ba edbc 3294 16bd
00000200: 1f1a 85bd c6c7 e33d 1fbd aabd 0cfd 093e
00000210: d3a8 99bc c7f3 94bd e7c5 a5bd 08e8 d6bd
00000220: 1168 e23d 4e0f 16bd 0c05 ae3c 08d1 183b
00000230: ad25 e1bd c844 213e 7ee3 8bbd 0f11 9d3d
00000240: a724 f13d cd37 02bc f006 5c3d 60eb a23c
00000250: bc7e 0ebe 6d5b 51bd 0d23 cd3d 995b 10be
00000260: efec b53d 52dc 223d 1626 963d fb59 ec3d
00000270: 6402 e3bd 2473 fcbd 3aae f83c 1569 da3d
00000280: 2dd8 ff3d a318 d3bd 2499 73bd 4a08 9cbc
00000290: b794 ce3c 427b 9cbd cf3e 6fbc 1015 c4bd
000002a0: aa4d 013e b77a 2b3c b71d ac3d 7eae 053d
000002b0: b3f2 f5bc e58b e5bd 7151 cbbd 0a5a 7cbd
000002c0: f0df 833d 7068 30bd 2281 97bd 0a29 903d
000002d0: da68 7c3d dc2d e3bd 6e98 fb3c 9f6b b73d
000002e0: c69d 143e b2fb 9abd 1eff 763d 28d8 9bbd
000002f0: d75a dc3c e889 a4bd 0954 f7bd 5481 56ba
00000300: 875d c43c 6dba 373c 88c3 983d be12 e53c
00000310: 7e9e ce3d 6521 7e3d 2f04 b9bc 2497 9ebd
00000320: 959d 013e 2bde f83b 6dfb 13bd 4bad a3bc
00000330: 7c09 b73d ee1c c23d ff96 eb3d 44bc 853d
00000340: 08d3 c53d 3624 e23d 1f12 123e acaa d23d
00000350: a09a d53d 16d2 ec3d fbd7 793c 9501 a13d
00000360: 1445 cabd fffc bcb9 69e8 d13d ad71 243e
00000370: ecc2 ea3d 493a c0bd fcc4 ecbd 9c02 8f3d
00000380: 9249 f43d f67c 7f3d be8f 333d f8a9 f43d
00000390: eb37 f1bc f91a 2c3e 114f f5ba 1e7a fb3c
000003a0: c28a c03d be56 2bbd ee85 8cbc 009c 1f3e
000003b0: 95e2 9fbc 94a1 863c 6c1c 663c 8ec3 973d
000003c0: 76c6 133e 92f5 c63d 6ab7 833c 3761 e13d
000003d0: 5a80 7f3d 85a9 323c c4fd 043e bda2 52bd
000003e0: 3b08 683d bbcb 6bbd f7ea bcbd 2fb3 f63d
000003f0: a440 86bd d9db 5ebc c7e7 52bd 737e 303e
0.13711844 0.023089517 0.00061650807 -0.02439448 -0.03266824 0.057789277 0.04077164 0.032295667
0.09401346 0.021606559 0.030049605 -0.07274915 -0.021296702 -0.10148152 0.016484056 0.13540593
0.11542944 0.036183853 0.15764081 0.10891708 0.1309741 0.1628344 0.08906193 0.025787745
0.053838722 0.11379129 0.078998566 0.14191201 -0.025457157 -0.040597357 0.004860837 0.06658713
-0.0646058 0.0447665 0.089132056 0.00059452077 -0.047823936 0.044966776 0.013765063 0.054513514
0.23943695 0.054759778 0.035012078 -0.024728535 -0.05976119 -0.026529813 0.15151338 0.15475321
0.09591102 0.20586058 -0.039613154 -0.008543064 -0.057891462 0.15321428 0.16739629 -0.0038341032
0.0032989013 -0.03516884 -0.052940544 0.011685123 0.10639464 0.045014847 0.08768374 0.13857405
0.04639114 -0.039128285 0.11211927 0.12513812 0.109235406 -0.064806096 0.14310215 -0.062242825
0.091152936 0.12331207 0.104192056 0.13304108 -0.06927634 0.12434256 0.011024615 -0.041101724
-0.106597774 0.008495335 0.14277221 0.10397816 0.14630394 0.12294667 -0.069424205 0.13939635
0.06628249 0.14651503 -0.017907916 -0.0072588515 0.039864823 -0.07516569 -0.013114301 0.16394138
-0.02236878 0.08604485 0.10500237 0.08364622 -0.020167409 -0.0077207573 -0.047562104 0.117043115
0.075903535 -0.06859682 -0.035430823 0.0644876 0.053765118 0.009151082 -0.039947275 -0.037123602
0.03591918 0.069845095 0.05217574 0.04576685 -0.009610267 0.1297844 -0.027351474 0.10182276
-0.00294906 -0.009980888 0.034423146 -0.06322652 -0.08593081 -0.04709458 -0.029019687 -0.036762424
-0.06499123 0.11122088 -0.08336853 0.13475436 -0.01875726 -0.07273059 -0.080943875 -0.10493475
0.11055005 -0.03663569 0.02124264 0.0023317952 -0.10993514 0.15748894 -0.068305 0.07669269
0.11774569 -0.007947874 0.053717554 0.019887626 -0.13915533 -0.05111258 0.10016451 -0.14097442
0.08883082 0.039760895 0.07331483 0.115406 -0.1108444 -0.12326649 0.030356515 0.10664574
0.12492404 -0.103074335 -0.05947222 -0.019046921 0.025217397 -0.07640697 -0.014602377 -0.0957433
0.12627283 0.010466269 0.08404105 0.03263711 -0.030022955 -0.112083234 -0.09927643 -0.061609305
0.06439197 -0.04306835 -0.07397677 0.070390776 0.06162343 -0.11092731 0.030712333 0.08956074
0.14513311 -0.07567538 0.060301892 -0.07609588 0.026898785 -0.08034116 -0.12076575 -0.00081827235
0.023970379 0.011213881 0.074591696 0.027963039 0.10088824 0.062043566 -0.022585003 -0.077436715
0.12657769 0.007594844 -0.03612845 -0.019980093 0.08937356 0.09478174 0.115034096 0.065300494
0.09659392 0.11042063 0.14264725 0.10286459 0.10429883 0.11563508 0.015249248 0.0786163
-0.09876457 -0.0003604665 0.10249407 0.16058989 0.1146296 -0.09386117 -0.11561009 0.069829196
0.11928095 0.06237503 0.043838255 0.119464815 -0.02944561 0.16807164 -0.001871558 0.030697878
0.09401466 -0.04183077 -0.017153706 0.15586853 -0.019517222 0.016434468 0.014044862 0.07410346
0.14431176 0.097148076 0.01607867 0.110048704 0.062378265 0.010904674 0.12987429 -0.05142473
0.056648474 -0.05756734 -0.092245035 0.12045895 -0.06555298 -0.01360222 -0.05149057 0.17235737

lstm.weight_ih_l1 f4 [256, 64]
00000000: 87b2 13be 977c eebd 27e0 9bbd 3c50 993d
00000010: 9206 373c 6586 eabc f55d 49bd ddc7 c8bd
00000020: 4946 d63d 422a f1bc 0761 12be 6268 8a3c
00000030: cb98 92bd 459b 8e3d d20a 48bd 424c b23d
00000040: d438 38bb c395 a9bd 711a f53d 2fd6 98bd
00000050: 4772 0bbe 0861 34bd 79c7 133e 9e71 3ebd
00000060: 81ea 9bbc 8115 3d3b 4de3 89bc ff9a b4bc
00000070: bb4e b03d 1bc1 573c 507c b8bc a06e f5bb
00000080: 347a c03d 555e a2bd 2d52 92bd 1265 13bc
00000090: 60a9 d83d 4085 5f3d 483b 9ebd 4726 a43d
000000a0: 041d 803c b5f5 063e d146 b8bd 6d49 47bd
000000b0: 6b7e 77bc c3b5 b5bd 2962 f4bd 505a c7bd
000000c0: 9ba4 853d eaca 02bd b074 4d3c 89dc 69bd
000000d0: 72c1 8f3d 2b1f 5ebd 20b2 083e 0b18 bebd
000000e0: c722 2f3d c39d 35bd 5043 263d 5019 08bb
000000f0: 0aa9 803d 1d0a eabd 9c3b debd c1f2 02be
00000100: 1a41 e03d 1767 fcbd 90da d2bd 16e1 803d
00000110: f8a4 f73d 439a ddbd 21a7 bb3d 97cd 2ebd
00000120: 3156 2b3b 45aa 4e3c 6519 283d efdd 46bd
00000130: 8303 933d 9898 9bbc 1e48 b9bd 120c 06be
00000140: 219f 67bc ffdb e23d ace6 023c cf13 53bd
00000150: 531d 2c3d 07bd 67bd 5247 793c 5dac 00be
00000160: fc26 ecbd 373b dfbd 79f2 89bd 5a92 9dbd
00000170: 9b9b 94bd 07b8 42bd 383a 903d 88fa adbd
00000180: 497d b8bc e36c 693d 5030 e13d 461f fc3d
00000190: 43e7 91bc 308f 0e3d b324 3d3c 0d5b f4bd
000001a0: 1ca4 1f3e a4ac 9bbb 99c0 81bc 65a0 3cbd
000001b0: 0be8 c03d c704 d3bc e913 4fbd df5e 463d
000001c0: 4591 623d 764a d33c 06f5 113d 464e 343c
000001d0: 5559 733d d30b b6bd a3fc 9fbd 3b8b 02bd
000001e0: 66ba 7bbd 7022 c5bd a580 96bd 8ae5 8c3d
000001f0: ed2b 3e3b b2f4 e63d 4b97 b5bd f7ca 203b
00000200: 8b5f 9f3d 0c64 9ebd 59a1 1dbd 6869 aabc
00000210: 92e4 6dba 9f66 ca3d ac68 923d f3c6 203d
00000220: b153 853d 770c 56bd f1c9 a1bb 897b 98bd
00000230: 859d 24be e6e0 22be 18ca 693c 4a7d e93d
00000240: 5d5d 20bb dc98 17bc 910e c5bd 1ff9 a1bd
00000250: 1eb7 a1bc 3e07 ac3d 9a24 033e b3d6 84bd
00000260: a211 35bd b848 93ba 9c51 f7bd 61a8 0a3e
00000270: 6c1a a53d 8385 0e3d aaac cabd 2d11 743d
00000280: f957 07be 0a2c ed3d 1759 b93d b3ed b8bc
00000290: 79ce 713d 1a85 0dbd 5cab e9bd cd8c 743d
000002a0: 6bf2 273e b277 c03c 3ef8 ecbc b5cb 3abd
000002b0: 315e 3d3d c80f 1d3c 4dd8 10be 8c64 88bd
000002c0: 4d2b b6bd c574 72bd 0e3a 0ebd 9d62 213b
000002d0: 709b edbd 4d9c 94bd 98f0 c6bd f68d 9abd
000002e0: 6b50 18bb 850e 14bd c273 4cbd e06c 313d
000002f0: 10f6 ab3d bb32 8c3d fee7 95bc 35f1 6dbd
00000300: 4c73 a0bc 6b95 01bd 77e5 b9bb cf60 3fbd
00000310: 3c07 033d c038 593d f133 6f3c 0a2f 903d
00000320: c715 c93d 47e9 8cbd aa8c 3c3d 106b f53d
00000330: c0bf b63c 0261 0f3d 8506 8abd 746e 92bd
00000340: 2c8e 15be 1a92 063e 0097 cc3d 313f c93d
00000350: ec6f 2c3d 98d8 603d a4d2 643d 2059 f5bd
00000360: 560f c9bd 61da ffbd 4ec2 1a3a 11e5 093e
00000370: 1e51 4c3c d495 cc3d 346c 97bd 184a 113e
00000380: 082f f5b9 ea55 493d 0179 a6bd d383 de3d
00000390: bb47 02bd 3e55 683d 58db c83c ae6b c13d
000003a0: b6bc 92bd 08c7 8dbd c93d a23d b37d f3bd
000003b0: e7f0 01bd a5aa 09be 9c4b bebd 3265 053e
000003c0: 18cd 5dbc ff31 e03d 61c8 c53d d07d fd3c
000003d0: a405 19bd d89c 8bbc 88d7 96bd 7ebb 9d3d
000003e0: b35e 393c f9ff e23d effd ab3c 3921 07be
000003f0: d49c bfbd 1549 ebbd 84f4 0dbd 177a 0abd
-0.14423572 -0.116448574 -0.07611113 0.074860066 0.011171 -0.028628537 -0.04916187 -0.09803746
0.104626246 -0.029439095 -0.14294825 0.016895477 -0.07158049 0.06963209 -0.048838444 0.08705951
-0.0028110044 -0.08280518 0.11967934 -0.07462727 -0.13617812 -0.04403785 0.14431562 -0.046495073
-0.019032719 0.0028851929 -0.016832018 -0.022046564 0.08608767 0.0131685985 -0.022520214 -0.007489994
0.093983084 -0.07928149 -0.0714458 -0.008996265 0.10579181 0.054570436 -0.07726151 0.08015113
0.015638836 0.13179667 -0.08997882 -0.04865401 -0.015105824 -0.08872559 -0.11932785 -0.097340226
0.065255366 -0.031931795 0.0125400275 -0.057095084 0.07019319 -0.054228943 0.133492 -0.092819296
0.042757776 -0.044339906 0.040591538 -0.002076704 0.06282242 -0.1142771 -0.10851213 -0.12787916
0.10949917 -0.1232435 -0.10295594 0.06292932 0.12092012 -0.10820439 0.09162737 -0.042676535
0.0026143903 0.012613838 0.041039843 -0.048551496 0.07178404 -0.01899366 -0.090469584 -0.13090542
-0.01413706 0.11077117 0.007989567 -0.051532563 0.042020153 -0.056576755 0.015214758 -0.12565751
-0.11530873 -0.10899966 -0.06735701 -0.0769393 -0.07256242 -0.047538783 0.07042354 -0.08495051
-0.022520678 0.056988608 0.10995543 0.123106524 -0.01781047 0.034804523 0.011544394 -0.11931429
0.15589947 -0.004750805 -0.015838908 -0.0460514 0.09419259 -0.025759114 -0.050556097 0.04843032
0.05531432 0.025792342 0.035634063 0.01100499 0.059411366 -0.08888974 -0.078118585 -0.03187106
-0.06145706 -0.09625709 -0.07348756 0.068797186 0.002901788 0.11277141 -0.088667475 0.002453504
0.07781895 -0.07733926 -0.03848395 -0.020802215 -0.0009074892 0.09882855 0.07148871 0.039252233
0.065101035 -0.05225798 -0.0049374034 -0.074454375 -0.16075714 -0.15906104 0.014269374 0.1140085
-0.0024469711 -0.009252753 -0.09621919 -0.07908844 -0.019740637 0.08399819 0.12806931 -0.06486263
-0.04420627 -0.0011236882 -0.12076113 0.13540794 0.0806168 0.034795295 -0.09896214 0.059586693
-0.13217153 0.115806654 0.09050196 -0.022574281 0.0590348 -0.034550764 -0.11409637 0.05970459
0.16401069 0.023494575 -0.028926965 -0.045604426 0.046232406 0.009586282 -0.14145012 -0.06659803
-0.08894978 -0.05919339 -0.034723334 0.0024625428 -0.11601913 -0.072563745 -0.09713858 -0.07546608
-0.0023241292 -0.03614666 -0.049915083 0.043316722 0.08396542 0.068456136 -0.018299099 -0.05809136
-0.019586228 -0.031636637 -0.0056731063 -0.046723183 0.03198932 0.053032637 0.014599786 0.07040222
0.09818607 -0.068804316 0.046032585 0.11983311 0.02230823 0.035004623 -0.06739525 -0.071499735
-0.14605016 0.13141671 0.099897385 0.09826506 0.042098925 0.05489406 0.055864945 -0.1197989
-0.09817378 -0.12492824 0.00059035874 0.13466288 0.012470512 0.09989515 -0.07393685 0.14188421
-0.00046765083 0.0491542 -0.081285484 0.10864987 -0.03180669 0.05672192 0.024518654 0.094443664
-0.071649 -0.06922728 0.07921941 -0.118892096 -0.031723883 -0.13444002 -0.09291765 0.13026884
-0.013537668 0.10947036 0.0965736 0.030943781 -0.037358895 -0.017042562 -0.07365328 0.07701777
0.011314082 0.11083979 0.020995108 -0.13196267 -0.093560845 -0.11488549 -0.034657016 -0.03380784
