back-end/tft_model.pth (torch, 210320 bytes, 13 tensors)

lstm.weight_ih_l0 f4 [200, 1]
0	0xbd90c645	-0.07069067
1	0x3e463a8f	0.19358276
2	0x3d569e0d	0.052396823
3	0xbc7038f4	-0.014662016
4	0x3dbf247e	0.09333132
5	0x3db9f69d	0.09080241
6	0xbd06b83b	-0.03289054
7	0xbd73778e	-0.059440188
8	0x3e41c85a	0.18924084
9	0xbdaa1266	-0.083042905
10	0x3e0debe4	0.13859516
11	0x3da4832f	0.08032834
12	0x3e164848	0.1467601
13	0x3e1dd23a	0.15412226
14	0xbe222279	-0.15833463
15	0xbcb71eb1	-0.022353502
16	0x3d061b4d	0.03274088
17	0x3cc5a18e	0.024124887
18	0x3dbf2948	0.09334046
19	0x3e45f7f9	0.19332875
20	0xbd5df8c7	-0.05419233
21	0x3cdfe21d	0.027329499
22	0x3d7f270e	0.062293105
23	0x3d0808f9	0.033211682
24	0x3e0140ea	0.12622419
25	0xbd2345c4	-0.039861456
26	0x3e2f2f09	0.17107786
27	0x3e117499	0.14204635
28	0x3e3c99ee	0.18418095
29	0x3e2812d5	0.16413434
30	0x3e56f8a9	0.20993294
31	0x3de694a9	0.112588234
32	0x3c96f407	0.018426908
33	0x3e142be6	0.14469871
34	0x3d39ea74	0.045389608
35	0x3de6bcc4	0.11266473
36	0xbd9321b9	-0.071841665
37	0x3e71d30e	0.23615667
38	0x3e0356d6	0.12826094
39	0x3e0e16b5	0.1387585
40	0x3dcae5cb	0.09907111
41	0xbd8cd447	-0.06876426
42	0x3ccde868	0.025135234
43	0x3d97910b	0.074007116
44	0x3da26e35	0.079311766
45	0x3e2f0934	0.17093354
46	0xb9d6719c	-0.00040901906
47	0x3e75ae50	0.23992276
48	0x3e0c7a4d	0.13718529
49	0x3de754fc	0.11295506
50	0x3d1455b4	0.036214545
51	0x3e086bbf	0.13322352
52	0xbdfc409c	-0.12317011
53	0x3db3d5fd	0.087810494
54	0xbb5e1eaa	-0.003389279
55	0x3deca561	0.11554981
56	0x3dc58d1e	0.096460566
57	0xbda486f6	-0.08033554
58	0xbd46891d	-0.048470605
59	0xbbfd9a90	-0.0077393726
60	0x3e532805	0.20620735
61	0x3d8ced85	0.06881241
62	0xbd261dab	-0.040555637
63	0xbe628704	-0.22121817
64	0xbe83b444	-0.2572347
65	0x3d5fff6c	0.05468695
66	0x3dca6fed	0.098846294
67	0x3c68238f	0.014168634
68	0x3e112577	0.14174448
69	0x3cc0ea91	0.02354935
70	0xbd858983	-0.06520369
71	0xbd68082a	-0.05664841
72	0xbdd09ce3	-0.10186174
73	0x3e0ef992	0.13962391
74	0x3e2c8ef2	0.16851404
75	0xbd0bf1fa	-0.034166314
76	0x3e3d41e1	0.18482162
77	0x3dd70036	0.10498087
78	0x3dea227e	0.1143236
79	0x3c4eed50	0.012629822
80	0x3e3f833b	0.18702404
81	0x3c7d057d	0.015443203
82	0xbcb4aa59	-0.022053884
83	0xbc171a93	-0.009222644
84	0x3d8f8cb0	0.07009256
85	0xb9f10faa	-0.00045978773
86	0x3d050fbf	0.03248572
87	0x3e1ab865	0.15109403
88	0x3e218e27	0.15776883
89	0xbda4f955	-0.08055369
90	0xbd600cdf	-0.054699775
91	0xbe80f2dd	-0.2518529
92	0xbd995aca	-0.0748802
93	0xbe1a4362	-0.15064767
94	0xbd71ad83	-0.059003364
95	0xbb3f5237	-0.002919329
96	0x3e33b632	0.17549971
97	0xbce59cdd	-0.0280289
98	0xbc07bd34	-0.008284856
99	0x3d9ddf69	0.07708628
100	0x3d0cd75b	0.034385066
101	0xbdf8137b	-0.121130906
102	0x3e3ac8a7	0.18240605
103	0x3dd57f5e	0.10424684
104	0xbd2f34fa	-0.04277513
105	0x3e044133	0.12915497
106	0x3df1bd16	0.118036434
107	0x3dbb18ff	0.09135627
108	0x3db64fd7	0.08901947
109	0x3e4e1b75	0.20127662
110	0x3e292e7f	0.16521643
111	0xbe5b4ffd	-0.21417232
112	0xbe3500a9	-0.17676033
113	0x3e1ff640	0.1562128
114	0xbe4ade53	-0.19811372
115	0xbe182585	-0.14858063
116	0xbe324082	-0.1740742
117	0xbe2f3c46	-0.17112836
118	0x3e0b51f1	0.13605477
119	0x3e432f64	0.19061047
120	0x3e16e85f	0.1473708
121	0xbdad8edc	-0.08474514
122	0x3d4852c7	0.048907068
123	0xbe14a789	-0.14517035
124	0xbe263eab	-0.16234843
125	0x3e0cf55c	0.13765472
126	0xbdff4fde	-0.12466405
127	0xbe22bf5f	-0.15893315
128	0xbe57e5d0	-0.2108376
129	0xbe0f2c94	-0.13981849
130	0x3df4d462	0.11954571
131	0x3e0b3e50	0.13597989
132	0x3de771cf	0.11301004
133	0x3e1a94e6	0.15095863
134	0x3e240bfd	0.16020198
135	0xbdd0fe8d	-0.10204802
136	0xbdf59136	-0.119905874
137	0x3e24b10e	0.16083166
138	0x3e24bef1	0.16088463
139	0x3e4c2662	0.19936517
140	0x3df2db4c	0.11858234
141	0xbe4ce552	-0.20009354
142	0xbe200002	-0.15625003
143	0x3e1888f0	0.14895988
144	0x3c832304	0.016007908
145	0xbe42805b	-0.18994276
146	0xbddc5ae6	-0.10759525
147	0x3e38986f	0.18026899
148	0x3d1210ce	0.035660557
149	0x3e24fa7a	0.16111174
150	0x3c918ee2	0.017768327
151	0xbc767c36	-0.015044263
152	0xbcf576b6	-0.029963832
153	0x3e05b873	0.13058643
154	0xbbb60696	-0.0055549843
155	0x3e9974b7	0.2997186
156	0xbcf1125f	-0.029427705
157	0xbd1e953a	-0.038716532
158	0x3d16bf0b	0.036803287
159	0x3ce4fea9	0.027953463
160	0x3e663cde	0.22484156
161	0x3dfef72b	0.12449487
162	0xbb68ac7b	-0.0035503197
163	0x3de10952	0.10988106
164	0xbd47f597	-0.048818197
165	0xbdc8439c	-0.097785205
166	0x3d02be0a	0.031919517
167	0x3dcbf037	0.09957927
168	0x3c755e94	0.014976162
169	0x3da3614b	0.079775415
170	0x3e0ab8d1	0.13547064
171	0x3d020986	0.031747364
172	0x3beeca1b	0.0072872764
173	0x3dee2916	0.1162893
174	0x3d1821fe	0.037141792
175	0xbc8fe052	-0.017563019
176	0x3c3581d4	0.011078317
177	0xbbbd1f59	-0.005771559
178	0xbc00d932	-0.007864283
179	0x3cfcf50a	0.030878562
180	0x3df5d90d	0.1200429
181	0x3e24e2a5	0.16102083
182	0xbc1970eb	-0.009365301
183	0x3d100110	0.035157263
184	0x3e7382eb	0.2378041
185	0xbc6b44d9	-0.014359676
186	0xbc21a3d0	-0.009865716
187	0x3bdbaf96	0.006704281
188	0x3e21d6f5	0.15804656
189	0xbb827ab6	-0.0039819134
190	0x3e65f2b4	0.22455865
191	0xbde8c8dc	-0.11366436
192	0x3e088370	0.1333139
193	0xbbf33b6e	-0.007422856
194	0x3daf8492	0.08570208
195	0x3d8b40f3	0.067994975
196	0xbcddf910	-0.027096301
197	0x3ce19109	0.027534978
198	0x3e1fcd57	0.15605675
199	0x3d9f5071	0.07779015

lstm.weight_hh_l0 f4 [200, 50]
0	0xbd67e48e	-0.05661445
1	0x3d6af528	0.057362705
2	0x3de91aea	0.113820866
3	0x3d7396c7	0.059469964
4	0xbd1e39ab	-0.038629215
5	0xbdc0682b	-0.093948685
6	0xbdeb7d50	-0.11498511
7	0xbaa62a31	-0.0012677369
8	0x3b855f34	0.004070187
9	0x3d8d20bf	0.068910114
10	0xbda90d79	-0.08254523
11	0xbddfed9a	-0.10933991
12	0xbe1237e9	-0.1427914
13	0x3e5c0bd9	0.21488895
14	0xbe1bf9ad	-0.15231963
15	0xbbb5d5b8	-0.005549159
16	0xbcc4d2d1	-0.024026306
17	0x3dd91bd3	0.1060101
18	0x3dc9bca7	0.09850436
19	0x3da6dfbd	0.081481434
20	0xbdfb5e50	-0.12273848
21	0x3d922c2e	0.07137333
22	0x3b9bcfd2	0.0047549987
23	0x3cbe0b59	0.02319877
24	0xbe13e6c4	-0.14443499
25	0x3d3ae9fd	0.045633305
26	0xbe16d2b0	-0.14728808
27	0xbcf10054	-0.029419102
28	0x3dc1ed0a	0.0946904
29	0x3d418347	0.047244336
30	0x3e07f006	0.13275155
31	0x3d1b2695	0.03787859
32	0xbc4bc585	-0.012437229
33	0xbd5d2254	-0.053987816
34	0x3bd3f31a	0.006468189
35	0x3c0bfac7	0.008543677
36	0xbcdc80a3	-0.026916808
37	0xbd913d09	-0.0709172
38	0x3de371f9	0.11105723
39	0xbd82dfed	-0.06390367
40	0x3ccd3be4	0.025052972
41	0xbd431ad8	-0.047633022
42	0xbdfddd05	-0.12395672
43	0x3da5bd23	0.080927156
44	0xbdb0e431	-0.08637274
45	0xbdf80b68	-0.121115506
46	0x3dc35953	0.095385216
47	0xbd84974b	-0.06474169
48	0xbafb81f4	-0.0019188509
49	0xbdecc994	-0.115618855
50	0xbbecf1ba	-0.0072309645
51	0xbc9885f7	-0.018618567
52	0xbd26fa4c	-0.040766045
53	0x3b407f0d	0.0029372603
54	0xbd560836	-0.052253924
55	0xbd806266	-0.06268768
56	0xbe0839b1	-0.13303258
57	0xbe2139c8	-0.15744698
58	0xbdbc06f4	-0.09181014
59	0x3dfe158a	0.12406452
60	0x3b057973	0.0020366579
61	0x3d63685e	0.055519454
62	0xbc8280ec	-0.015930615
63	0x3d33c923	0.04389299
64	0xbdc09fa9	-0.09405453
65	0xbd91f0f8	-0.07126039
66	0x3d81c7ef	0.063369624
67	0x3d96fbba	0.07372232
68	0x3da8d77b	0.08244225
69	0x3e13a40a	0.14418045
70	0xbcdd202e	-0.026992884
71	0xbddc54be	-0.10758351
72	0xbdb31b13	-0.08745398
73	0x3d7b9297	0.061419096
74	0x3c55a746	0.013040369
75	0xbd4a2279	-0.049349282
76	0x3e01f193	0.1268981
77	0x3d8b3b1b	0.06798383
78	0xbdb2339a	-0.087012485
79	0x3cf5cb9b	0.030004313
80	0xbcee037b	-0.029054394
81	0xbdc829d2	-0.097736016
82	0xbd07170c	-0.032980964
83	0x3d210a07	0.039316203
84	0x3d18ec76	0.03733488
85	0xbd9bf318	-0.07614726
86	0x3dbd1034	0.09231606
87	0xbd0c80c4	-0.034302488
88	0x3e02aff3	0.12762432
89	0x3e227890	0.15866303
90	0xbda483b9	-0.080329366
91	0xbd2d467d	-0.04230355
92	0xbc8a6d9a	-0.016897965
93	0xbd53216d	-0.05154555
94	0x3cdad2ba	0.02671181
95	0x3c142f29	0.009044447
96	0x3da3a099	0.07989616
97	0x3e1f5a29	0.15561737
98	0xbd72a301	-0.059237484
99	0x3e17a638	0.14809501
100	0x3e207ab8	0.15671813
101	0xbdcc7e5f	-0.09985041
102	0x3d0999fd	0.03359412
103	0xbd8b74d8	-0.068093956
104	0x3b3ab2d6	0.0028487942
105	0x3e1526b3	0.14565544
106	0x3df8e7f1	0.12153614
107	0xbd9453d1	-0.07242549
108	0x3e064448	0.13111985
109	0x3d199609	0.0374966
110	0xbd732059	-0.05935702
111	0x3d26445d	0.04059254
112	0x3dd4062f	0.10352742
113	0xb99c955b	-0.00029865917
114	0x3e151677	0.14559351
115	0x3cd5a15a	0.026077915
116	0x3cd01ad1	0.025403412
117	0xbde5ef13	-0.112272404
118	0x3e25046a	0.16114965
119	0x3cc6ccb9	0.024267541
120	0xbdc65fcd	-0.09686241
121	0xbe065e20	-0.13121843
122	0x3dcb54ce	0.099282846
123	0xbca50d78	-0.020148024
124	0x3d67285d	0.056434978
125	0xbdd16fd0	-0.10226405
126	0xbd020989	-0.031747375
127	0xbe26a4c2	-0.16273788
128	0xbce667ca	-0.028125662
129	0x3d199e84	0.037504688
130	0x3ce073a7	0.027398897
131	0x3ddcae51	0.10775436
132	0x3e1e38c0	0.15451336
133	0xbd8b6665	-0.068066396
134	0xbd8f22dd	-0.069890715
135	0x3c688784	0.014192466
136	0xbd15f233	-0.036607932
137	0x3caea72e	0.021319952
138	0x3cb66e88	0.022269502
139	0x3d5d59a8	0.05404058
140	0xbcbacdad	-0.022803152
141	0xbd4496ce	-0.04799538
142	0x3ccae775	0.02476857
143	0x3d73227f	0.05935907
144	0xbe3c9396	-0.18415675
145	0x3cc3020e	0.02380469
146	0x3d1484b3	0.036259364
147	0xbdd13327	-0.10214835
148	0x3e255f5e	0.16149661
149	0x3e1c44c2	0.15260604
150	0x3c3496ca	0.011022279
151	0xbc9b4cc8	-0.01895751
152	0x3de24968	0.110491574
153	0x3d0650ea	0.03279201
154	0xbcc2bf50	-0.023772866
155	0x3e2cb037	0.16864096
156	0x3e3444e0	0.17604399
157	0xbc61ac17	-0.01377394
158	0xbcc5b23d	-0.024132842
159	0xbdab5530	-0.083658576
160	0xbd893cdc	-0.06701061
161	0xbdc9b73b	-0.098494016
162	0xbc49243c	-0.012276705
163	0x3e1c02a8	0.15235388
164	0x3d102dbb	0.035199862
165	0xbdd92363	-0.106024526
166	0xbe2a9528	-0.16658461
167	0xbd889928	-0.06669837
168	0x3db23d09	0.08703048
169	0x3e1ab562	0.15108255
170	0x3d825086	0.06363015
171	0x3d8888a7	0.06666689
172	0xbe03fbac	-0.12888974
173	0xbcb97fd0	-0.022643954
174	0x3d85e0e7	0.06537037
175	0x3c65f108	0.014034517
176	0x3d969c54	0.07354036
177	0x3b8ab23b	0.0042326725
178	0xbdd1af22	-0.10238482
179	0x3cc6fdf0	0.024291009
180	0xbda902a6	-0.08252458
181	0x3cbaacc6	0.022787463
182	0x3e298b55	0.16557057
183	0xbd5422bb	-0.051790934
184	0x3dc84814	0.09779373
185	0x3d866113	0.06561484
186	0x3e12d908	0.14340603
187	0xbc956828	-0.018238142
188	0x3da580eb	0.0808123
189	0x3a9dae18	0.0012030033
190	0x3d3cacb7	0.04606315
191	0x3e0ec8f6	0.13943848
192	0xbda3b2d3	-0.079930924
193	0x3bbbac31	0.005727314
194	0xbe390569	-0.1806847
195	0xbd9e12d9	-0.07718439
196	0x3bed2d7d	0.0072380886
197	0xbcaceb88	-0.021108404
198	0xbda62abc	-0.0811362
199	0x3df9b6f1	0.121930964
200	0x3d9b01f7	0.07568734
201	0x3cccc151	0.024994524
202	0x3dde1f88	0.10845858
203	0x3e05f2a9	0.13080849
204	0x3d5b7f34	0.053588107
205	0xbcb0095a	-0.021488834
206	0x3d57a896	0.05265101
207	0x3db47501	0.08811379
208	0x3e20665a	0.15664044
209	0xbda2db3d	-0.07951973
210	0x3da29364	0.07938269
211	0xbda199c6	-0.07890658
212	0xbdcdc735	-0.10047761
213	0xbd154a56	-0.036447845
214	0xbbd33f25	-0.0064467364
215	0xbca9ceaf	-0.020728437
216	0xbdb86101	-0.09002877
217	0xbd84e349	-0.06488664
218	0xbdba7188	-0.091036856
219	0x3dc188d2	0.094499245
220	0x3d83c49e	0.06433986
221	0x3dbf5b6a	0.09343608
222	0xbdc3830d	-0.0954648
223	0xbdf67829	-0.120346375
224	0x3d4166ad	0.04721706
225	0x3df5e507	0.12006574
226	0xbe074072	-0.13208178
227	0x3d463348	0.04838875
228	0xbd8d4c50	-0.06899321
229	0xbd8dd47f	-0.06925296
230	0x3d87f34a	0.066382006
231	0xbdab9593	-0.083781384
232	0xbcf09de0	-0.029372156
233	0xbc5ccc8e	-0.013476504
234	0x3e0a8651	0.135278
235	0x3d48c64d	0.04901724
236	0xbdf2f45f	-0.11863016
237	0x3de525dc	0.11188862
238	0xbc3aa9d3	-0.011393028
239	0xbd0538a4	-0.03252472
240	0x3dc7250e	0.097238645
241	0xbd95c645	-0.073132075
242	0xbe2275c6	-0.1586524
243	0x3dd1f00c	0.102508634
244	0xbd64770e	-0.055777602
245	0xbc8cbbc9	-0.017179387
246	0xbe334b1a	-0.17509118
247	0x3e2a9216	0.1665729
248	0x3b31d4bc	0.0027134856
249	0x3dbaaa6a	0.09114535
250	0xbc5a3a71	-0.013319598
251	0xbd818908	-0.06324965
252	0x3a446f6a	0.00074934086
253	0xbd85b29e	-0.06528209
254	0xbdf24c7d	-0.11830995
255	0x3d85a70f	0.065260045

lstm.bias_ih_l0 f4 [200]
0	0xbe048fa8	-0.12945426
1	0x3c612fd0	0.01374431
2	0x3e24e268	0.16101992
3	0x3df8b057	0.12143009
4	0x3e214f9f	0.1575303
5	0xbdb74b2d	-0.089498855
6	0x3b7e5f23	0.003881403
7	0x3e29758a	0.16548744
8	0xbd61f35b	-0.055163722
9	0x3e22ad57	0.15886436
10	0xbd0863c7	-0.03329828
11	0x3e477580	0.19478416
12	0xbddf576d	-0.10905347
13	0x3dd68a43	0.1047559
14	0x3c33ebe2	0.010981532
15	0xbd63dcf4	-0.05563064
16	0x3d906aee	0.07051645
17	0x3da405e9	0.0800894
18	0x3ca50fd1	0.020149143
19	0xbc76b760	-0.015058368
20	0xbdf658ee	-0.12028681
21	0xbd275d87	-0.04086068
22	0xbdc7979b	-0.09745713
23	0xbd4add6f	-0.04952758
24	0x3e0b25cf	0.13588642
25	0x3ba3b89f	0.004996374
26	0x3da4f231	0.08054007
27	0xbdab5da5	-0.08367471
28	0x3da91e6e	0.08257757
29	0xbcc95d96	-0.024580758
30	0x3d1e9375	0.038714845
31	0x3db94f97	0.09048384
32	0xbd949082	-0.07254125
33	0x3e0b8c9d	0.13627858
34	0x3be48775	0.0069741555
35	0xbdd199b0	-0.10234392
36	0x3e279137	0.16363989
37	0x3e5b65f1	0.21425606
38	0x3df81204	0.12112811
39	0xbdb1a80b	-0.0867463
40	0x3df92e1f	0.12167
41	0x3e3d2fa4	0.18475205
42	0xbdcc1523	-0.09964969
43	0xbd71b9c9	-0.05901507
44	0xbdca7225	-0.098850526
45	0xbd948382	-0.072516456
46	0xbdc2fe91	-0.09521211
47	0xbc638714	-0.013887186
48	0x3df12820	0.11775231
49	0x3cd3755b	0.025812795
50	0x3dfad6ca	0.12247999
51	0xbd8872eb	-0.06662544
52	0xbe02c006	-0.12768564
53	0x3de630d9	0.11239786
54	0x3b852394	0.004063079
55	0xbdfb4889	-0.12269694
56	0x3b1bfd95	0.002380227
57	0x3dcec267	0.10095673
58	0xbe0823e6	-0.13294944
59	0x3dd034e3	0.10166337
60	0xbde3f320	-0.11130357
61	0x3dc09a1d	0.09404395
62	0xbc1e08c7	-0.009645647
63	0x3e00837a	0.12550154
64	0xbd28a524	-0.041173115
65	0xbdacb24c	-0.08432445
66	0xbe095767	-0.13412248
67	0x3deb88ff	0.11500739
68	0x3d278d6b	0.04090635
69	0xbd496264	-0.0491661
70	0xbda06bb3	-0.07833042
71	0xbe015a25	-0.12632044
72	0xbd911b47	-0.07085281
73	0xbddcac6b	-0.107750736
74	0xbddb6f46	-0.10714583
75	0x3dfd5ad8	0.12370843
76	0x3d11a527	0.035557892
77	0x3e00ad01	0.12565996
78	0x3d225bdb	0.03963838
79	0x3e0f1839	0.13974084
80	0x3dde01ac	0.10840163
81	0xbd563306	-0.052294753
82	0x3d3af273	0.045641374
83	0x3da5d9e3	0.08098199
84	0x3d28656a	0.04111234
85	0xbd54d57b	-0.051961403
86	0x3dfa202e	0.12213169
87	0xbd729664	-0.059225455
88	0xbb4f003e	-0.0031585838
89	0xbdecf5ca	-0.11570318
90	0xbdd09658	-0.10184926
91	0x3c95156e	0.018198695
92	0x3da04a6d	0.078266956
93	0xbcac7eea	-0.021056611
94	0x3cd19fbb	0.02558886
95	0x3dc3d0cd	0.0956131
96	0x3d9d8cae	0.07692848
97	0x3e24aeb3	0.16082267
98	0x3d1035c6	0.035207532
99	0xbd91dbab	-0.071219765
100	0x3df09275	0.117466845
101	0xbde07411	-0.10959638
102	0xbdbbbfd2	-0.09167446
103	0x3d0a4292	0.033754893
104	0xbd082001	-0.033233646
105	0x3d140232	0.036134906
106	0xbd50ba95	-0.05095919
107	0xbde1cb44	-0.11025098
108	0x3b7bfc21	0.003844984
109	0xbde8ae5c	-0.113613814
110	0x3cf7e91a	0.030262519
111	0xbdb5f34e	-0.08884297
112	0xbd7c27dc	-0.06156145
113	0xbc0081cb	-0.007843445
114	0x3d8f7204	0.07004169
115	0x3dc5e050	0.09661925
116	0x3d1925d8	0.037389606
117	0xbd7b0cd7	-0.061291542
118	0xbd321be9	-0.04348365
119	0xbde66759	-0.11250181
120	0x3d8bc001	0.06823731
121	0xbda3d4e1	-0.07999588
122	0xbda195ae	-0.07889877
123	0x3e009446	0.12556562
124	0x3c37917a	0.011204118
125	0x3d991007	0.0747376
126	0xbd8416e2	-0.06449677
127	0xbd20a023	-0.03921522
128	0xbdab5287	-0.0836535
129	0x3c7e99cd	0.015539599
130	0xbdd69d7a	-0.10479255
131	0x3d0e7793	0.034782004
132	0x3c280068	0.010254003
133	0xbd88dcb8	-0.06682724
134	0xbc8e9fc1	-0.017410161
135	0xbda5ab92	-0.08089365
136	0xbdcff024	-0.10153225
137	0x3d917643	0.07102635
138	0xbda52e07	-0.0806542
139	0x3da60b39	0.08107609
140	0xbb23eb90	-0.0025012232
141	0xbd2132ad	-0.03935497
142	0xbd1684b0	-0.036747634
143	0x3d92b8e1	0.07164169
144	0xbc74aabf	-0.014933287
145	0xbdab61a2	-0.08368231
146	0x3cf84233	0.030305004
147	0xbc699239	-0.014256054
148	0x3d7ce07d	0.061737526
149	0x3dab5a98	0.08366889
150	0x3d9477c1	0.07249404
151	0xbdba217e	-0.090884194
152	0xbb427e70	-0.0029677413
153	0x3b71de4c	0.003690618
154	0xbdac438c	-0.08411321
155	0xbd86f27e	-0.065892205
156	0x3cd8dfc0	0.02647388
157	0x3d09194a	0.033471383
158	0xbd525d6d	-0.05135863
159	0x3b4b9d33	0.003106904
160	0x3e0f175c	0.13973755
161	0x3c0dac7d	0.008647081
162	0xbd024a92	-0.031809397
163	0x3d8d0ac1	0.06886817
164	0x3b86b546	0.004110965
165	0xbd05da40	-0.032678843
166	0x3b2a7dfe	0.0026015039
167	0x3d89d5a1	0.067301996
168	0x3dd28ac7	0.10280376
169	0x3d592b83	0.05302001
170	0xbdd84c31	-0.10561407
171	0xbdfd869f	-0.123791926
172	0xbca981dc	-0.020691805
173	0x3df8e023	0.12152126
174	0x3c7c15ff	0.015386104
175	0xbdeeac8f	-0.11654007
176	0xbda57a13	-0.080799244
177	0x3e0ac80d	0.13552876
178	0xbda7edb0	-0.08199632
179	0x3e35c31c	0.1775021
180	0xbc010100	-0.007873774
181	0xbd64f80a	-0.05590061
182	0x3d853c52	0.06505646
183	0x3d950064	0.07275465
184	0x3ca9f04d	0.020744467
185	0xbd26b1ae	-0.040696792
186	0x3d8ccc7f	0.06874942
187	0x3c8cee1a	0.01720338
188	0x3ca84a02	0.020543102
189	0x3e0f2a19	0.13980903
190	0x3ddf6122	0.109071985
191	0x3d7cf8bc	0.06176065
192	0xbcf3d859	-0.029766249
193	0x3e204dcd	0.15654679
194	0x3ca1592b	0.019695839
195	0x3d2b79a8	0.041864067
196	0x3df2fe7d	0.11864946
197	0x3e08f342	0.13374045
198	0xbd9ec170	-0.07751739
199	0x3e1445d9	0.1447977

lstm.bias_hh_l0 f4 [200]
0	0xbd14e2eb	-0.03634922
1	0xbd3cbefb	-0.04608057
2	0x3de3c5b4	0.11121693
3	0xbd49cc7e	-0.049267285
4	0x3b91c74d	0.0044488073
5	0x3d448ce9	0.047985945
6	0x3c96aec5	0.018393883
7	0xbcf9e58b	-0.030504962
8	0x3bc27f12	0.005935558
9	0xbd1d6164	-0.038422957
10	0xbd84dda5	-0.06487588
11	0x3dd5ac53	0.10433259
12	0x3e09eaca	0.13468471
13	0x3dddf435	0.108375944
14	0xbce67b8c	-0.028135084
15	0xbc9dd135	-0.019264797
16	0xbdc22040	-0.094788074
17	0x3cbaacb4	0.02278743
18	0x3ccfed5e	0.02538174
19	0xbcc993c8	-0.0246066
20	0x3e221657	0.15828834
21	0xbd4ec9a5	-0.050485272
22	0x3e065b3e	0.13120744
23	0x3dadae76	0.084805414
24	0x3e0aa27b	0.13538544
25	0xbd97123e	-0.07376526
26	0x3da96418	0.082710445
27	0x3e1a10d9	0.1504549
28	0x3c01e32d	0.007927698
29	0x3dee0f9c	0.11624071
30	0x3a80bde7	0.000982222
31	0xbd9f0202	-0.07764055
32	0xbdc4845a	-0.095955566
33	0x3e2fb72a	0.17159715
34	0x3e00daff	0.1258354
35	0xbdf3d1ac	-0.11905226
36	0x3c814fe3	0.015785163
37	0x3e49dbf1	0.19712807
38	0x3d9f1a92	0.0776874
39	0x3e003bb3	0.12522773
40	0xbaad4438	-0.0013219183
41	0x3dd3e195	0.10345761
42	0x3d659633	0.056051444
43	0x3c84852b	0.01617678
44	0xbe030118	-0.12793386
45	0xbd4c8f77	-0.049941506
46	0xbdfc93c8	-0.123328745
47	0x3e511cce	0.20421144
48	0xbd4a8165	-0.049439806
49	0xbd30a251	-0.043123547
50	0x3be0dd12	0.006862291
51	0x3d100ab5	0.03516646
52	0x3caf22b9	0.021378862
53	0xbd142d7c	-0.03617619
54	0x3e11a092	0.14221409
55	0x3d525f29	0.051360283
56	0xbd86716b	-0.065646015
57	0xbd1337e0	-0.03594196
58	0xbd95d7a3	-0.0731652
59	0xbd85757f	-0.06516551
60	0x3dda1d75	0.1065015
61	0xbdcf7c33	-0.10131111
62	0xbcd5b3a5	-0.026086638
63	0xbd1dba2d	-0.03850763
64	0x3c3c7364	0.011502121
65	0xbdb163d3	-0.08661618
66	0x3d998ff9	0.07498164
67	0xbe109923	-0.14120917
68	0x3daedb89	0.08537967
69	0xbd3ea3ab	-0.046542805
70	0xbcac1e6b	-0.021010598
71	0xbd9753fc	-0.073890656
72	0xbcc0ccaf	-0.0235351
73	0x3e086b66	0.13322219
74	0x3d92aa90	0.071614385
75	0x3dd12da9	0.10213787
76	0x3dfca266	0.123356625
77	0xbc576080	-0.013145566
78	0x3dfc3c00	0.123161316
79	0xbd2816e3	-0.04103745
80	0x3db8785a	0.0900733
81	0xbde78890	-0.11305344
82	0xbd722113	-0.059113573
83	0xbd8eea8e	-0.069783315
84	0xbd032f67	-0.03202763
85	0xbdbd2534	-0.092356116
86	0x3cbd0e5d	0.023078138
87	0xbd006ab6	-0.031351767
88	0x3cc940ee	0.024567094
89	0x3db5a51d	0.088693835
90	0x3df6f020	0.12057519
91	0x3d5e4da3	0.05427326
92	0x3de39c27	0.11113768
93	0x3cfe7146	0.031059872
94	0x3d99c09c	0.075074404
95	0xbe0b3e59	-0.13598002
96	0xbaad55a6	-0.0013224378
97	0x3d0585b5	0.032598216
98	0x3c3c9934	0.011511136
99	0x3db141ea	0.0865515
100	0x3d505516	0.050862394
101	0xbbdd50a1	-0.0067539965
102	0xbd74b091	-0.0597387
103	0xbcd867df	-0.026416717
104	0xbcece5eb	-0.028918227
105	0xbbc83f63	-0.006111072
106	0x3d99e2b4	0.07513943
107	0x3d73a7ab	0.059486073
108	0xbbf3ca38	-0.007439878
109	0xbdde5686	-0.10856347
110	0x3d1e1f51	0.038604084
111	0x3e099c5d	0.13438554
112	0x3d962151	0.07330573
113	0xbd29942d	-0.041401077
114	0x3d71ddb2	0.059049316
115	0x3ca6dc1e	0.020368632
116	0xbd95c485	-0.07312874
117	0xbc735731	-0.014852331
118	0x3d87af4e	0.066252336
119	0x3cfa6584	0.030565985
120	0xbdd4a02e	-0.10382114
121	0x3d584c69	0.052807245
122	0xbe156a0d	-0.14591236
123	0xbdc9b2e9	-0.098485775
124	0xbd3e82a5	-0.04651131
125	0xbcdad9bb	-0.02671515
126	0x3b36ac8b	0.002787384
127	0x3bee5ec3	0.00727448
128	0x3e233b6b	0.15940635
129	0x3c188bb1	0.009310649
130	0x3db76b27	0.089559846
131	0xbda7d2bd	-0.08194492
132	0x3c2d07b9	0.010560923
133	0xbcab5be8	-0.020917848
134	0xbd0e6f5b	-0.034774166
135	0xbd7c5c6c	-0.061611578
136	0x3e247fc1	0.16064359
137	0xbdbab5c8	-0.09116703
138	0x3c4a5817	0.012350104
139	0xbd9773e8	-0.07395154
140	0x3cacdb6a	0.021100719
141	0x3dec73d9	0.11545534
142	0xbd87bfa3	-0.06628349
143	0xbe1c5be0	-0.15269423
144	0xbd91ab5b	-0.071127616
145	0x3d4321f1	0.04763979
146	0xbdf07948	-0.117418826
147	0xbcb3e17b	-0.021958103
148	0xbdc5bd47	-0.096552424
149	0xbb2420ae	-0.0025043893
150	0x3d2f9daf	0.04287499
151	0x3dff5abc	0.12468478
152	0x3d32ce1d	0.043653596
153	0xbdb49a4e	-0.08818494
154	0xbd5da1e3	-0.054109465
155	0xbd339890	-0.043846667
156	0xbd069fdc	-0.032867298
157	0x3dcecbc8	0.10097462
158	0xbd91f0de	-0.0712602
159	0x3dfe43bb	0.12415262
160	0xbdcbaeae	-0.09945427
161	0xbda85519	-0.08219356
162	0xbd81f258	-0.063450515
163	0x3ccf7462	0.02532405
164	0x3e37e216	0.17957339
165	0x3e007962	0.12546304
166	0xbde563c5	-0.1120067
167	0x3c5ab7db	0.013349499
168	0xbd6305dc	-0.05542551
169	0x3e5c55a1	0.2151704
170	0xbd7bfdf2	-0.061521478
171	0x3da02f12	0.07821478
172	0x3d971da8	0.07378703
173	0x3e0661db	0.13123266
174	0x3d953642	0.072857395
175	0x3d59405e	0.0530399
176	0x3e0cc73e	0.1374788
177	0x3b155757	0.0022787654
178	0x3db33ad0	0.08751452
179	0xbd8cfccc	-0.06884155
180	0xbc2b0034	-0.01043706
181	0x3e2a1f03	0.16613393
182	0x3dea24a3	0.11432769
183	0x3c63f857	0.013914189
184	0xbc9bfa0d	-0.019040132
185	0xbd3e1842	-0.046409853
186	0x3d83f95d	0.06444047
187	0xbc6f2ad6	-0.014597615
188	0x3de86af7	0.11348527
189	0xbbd217ef	-0.0064115445
190	0x3d7666d5	0.060156662
191	0x3e7c99ff	0.2466812
192	0xbdef7ad5	-0.1169335
193	0x3ded55dd	0.11588643
194	0xbda35b2d	-0.07976375
195	0x3dd46f5c	0.103728026
196	0xbbac9b0e	-0.0052675074
197	0x3e459b30	0.1929748
198	0xbdc278a3	-0.09495666
199	0xbd969d89	-0.07354266

lstm.weight_ih_l1 f4 [200, 50]
0	0xbc9431ca	-0.018090148
1	0xbe1a96c8	-0.15096581
2	0x3d85b973	0.06529512
3	0xbd107d7a	-0.035275914
4	0x3d0e808f	0.03479057
5	0x3e2220f9	0.1583289
6	0x3de30b88	0.11086184
7	0xbd357823	-0.044304024
8	0xbd06f7eb	-0.032951277
9	0xbd11f8f4	-0.03563781
10	0xbd258711	-0.040412012
11	0xbcc6b61e	-0.024256762
12	0xbca07be4	-0.019590326
13	0xbc91ceae	-0.017798748
14	0xbe22ba27	-0.15891324
15	0xbd89b850	-0.06724608
16	0x3db0d3d3	0.08634152
17	0xbdb76ac8	-0.08955914
18	0x3bab7010	0.0052318648
19	0x3db293ae	0.08719574
20	0xbdbc26f5	-0.09187118
21	0xbd56b5e1	-0.052419547
22	0xbe137aac	-0.14402264
23	0x3d981e68	0.074276745
24	0x3d98d991	0.074633725
25	0xbddbcf09	-0.10732848
26	0x3e0a5f6a	0.1351296
27	0x3b03eebb	0.0020131308
28	0x3ce99763	0.02851457
29	0xbd10043f	-0.0351603
30	0xbd804ebf	-0.062650196
31	0xbdc30e49	-0.09524209
32	0x3ca0a6df	0.01961082
33	0xbd169343	-0.036761533
34	0x3dce767b	0.10081192
35	0x3d051a3f	0.032495733
36	0xbe27053d	-0.16310592
37	0x3d300ae2	0.04297913
38	0x3e371a9e	0.17881247
39	0xbdb98fb8	-0.09060615
40	0x3ddeec3b	0.10884901
41	0xbde20173	-0.11035433
42	0x3e072d83	0.13200955
43	0x3d1e282f	0.03861254
44	0xbdf34b44	-0.1187959
45	0x3c99041e	0.018678721
46	0xbe110dbb	-0.14165394
47	0x3d8e0e6b	0.06936344
48	0x3d415dc9	0.04720858
49	0x3ded0997	0.11574095
50	0x3a5365bd	0.00080641714
51	0xbd32560c	-0.043539092
52	0x3dc6ab81	0.097006805
53	0xbd907814	-0.07054153
54	0xbc1e80f4	-0.0096742995
55	0xbad4054e	-0.0016175897
56	0xbe08a61e	-0.13344619
57	0x3d08b2a1	0.03337348
58	0xbd672d14	-0.056439474
59	0x3d01e189	0.031709228
60	0x3e23c936	0.15994725
61	0x3dab91dc	0.0837743
62	0xbd7fada8	-0.06242147
63	0x3e162f96	0.1466659
64	0x3d6c897f	0.057748314
65	0xbd65730f	-0.05601793
66	0xbe01644b	-0.12635915
67	0xbc4b243e	-0.0123987775
68	0x3c09f76e	0.008420808
69	0x3d8d9755	0.0691363
70	0x3de13e55	0.10998217
71	0x3d99a98d	0.07503042
72	0x3d340dc6	0.043958448
73	0x3cec26bd	0.028827066
74	0x3d8f2611	0.069896825
75	0xbdf5afb2	-0.11996402
76	0x3dbdf90b	0.09276017
77	0xbdf6c88d	-0.12049971
78	0xbe1fa596	-0.1559051
79	0xbd25b07a	-0.040451504
80	0x3e26bf1d	0.16283841
81	0x3da4b553	0.08042397
82	0x3bacb2bc	0.0052703302
83	0x3c19b8ed	0.009382469
84	0xbd5da620	-0.054113507
85	0x3b5102dc	0.0031892573
86	0xbe1155fc	-0.14192957
87	0xbd3a02af	-0.045412716
88	0x3dfa9e7e	0.12237261
89	0xbc9ee2e2	-0.019395296
90	0x3e1b226b	0.15149848
91	0x3e15c598	0.14626157
92	0x3ddb42ae	0.107060775
93	0x3d9c2838	0.076248586
94	0x3dbfa53a	0.09357686
95	0x3d5795e1	0.05263317
96	0x3dda0c46	0.10646872
97	0x3ceec97a	0.029148806
98	0x3d2dd52e	0.042439632
99	0x3de99ccc	0.1140686
100	0x3d72bedd	0.059264053
101	0xbdfb7967	-0.12279015
102	0x3c690a2a	0.014223615
103	0x3d015630	0.031576335
104	0xbdf4d584	-0.119547874
105	0x3be67732	0.007033252
106	0x3d26a5e4	0.04068555
107	0x3d9d94d1	0.076944
108	0x3e21f046	0.15814313
109	0x3e2917a4	0.16512924
110	0x3e0d5a97	0.13804089
111	0xbde98203	-0.11401751
112	0xbdb94601	-0.09046555
113	0xbd390380	-0.045169353
114	0xbe3aa893	-0.18228368
115	0x3cfc9eb7	0.0308374
116	0xbdae322d	-0.08505664
117	0x3d730e7e	0.059339993
118	0x3e12ab5d	0.14323182
119	0x3d8fb4f6	0.070169374
120	0x3de9facc	0.11424789
121	0x3dc27303	0.09494593
122	0x3cae077e	0.021243807
123	0xbd811f57	-0.06304806
124	0xbdc4de5c	-0.09612724
125	0xbd3ccf1c	-0.046095952
126	0x3db17310	0.086645246
127	0x3dd751ef	0.105136745
128	0x3d1d4aa9	0.03840128
129	0xbe19531b	-0.14973108
130	0x3d5c9399	0.053851698
131	0x3e409251	0.18805815
132	0x3de7ee87	0.11324792
133	0xbb81f8b4	-0.0039664153
134	0x3d5dc23c	0.054140314
135	0xbd98854e	-0.07447301
136	0xbe4942c0	-0.1965437
137	0x3e4baed3	0.19890909
138	0x3dddb854	0.108261734
139	0x3e225b91	0.15855242
140	0xbda5dad9	-0.080983825
141	0x3cf171ca	0.029473204
142	0xbdeb72e6	-0.114965245
143	0x3d587a24	0.052850857
144	0x3da797aa	0.081832245
145	0xbc368ecb	-0.011142443
146	0x3d8fb8cf	0.07017671
147	0x3dc531d0	0.096286416
148	0xbd47d16c	-0.048783705
149	0xbd85f1ca	-0.06540258
150	0xbb225aa9	-0.0024773276
151	0xbe05ca4f	-0.13065456
152	0x3cdb50ef	0.02677199
153	0x3e177837	0.14791952
154	0xbd8bf100	-0.068330765
155	0x3bdb8c23	0.006700055
156	0x3dd7cf87	0.105376296
157	0x3dc182bd	0.094487645
158	0x3e2ca102	0.16858295
159	0x3d226338	0.039645404
160	0x3db978dc	0.09056255
161	0x3bd17503	0.0063921227
162	0x3deae00d	0.114685155
163	0x3e07a10f	0.13245033
164	0xbd9e34db	-0.07724925
165	0xbdec70f8	-0.115449846
166	0x3dc1d859	0.09465093
167	0xbda3ac98	-0.07991904
168	0x3db3448e	0.0875331
169	0x3cf80d7e	0.030279871
170	0x3db951e1	0.0904882
171	0xbe16c65d	-0.14724107
172	0xbcc860b5	-0.024460176
173	0x3ddc3b4d	0.10753498
174	0xbdf5503d	-0.11978195
175	0xbc097b77	-0.008391253
176	0xbbf3ca5a	-0.0074398937
177	0xbc27abd1	-0.010233835
178	0xbceb3590	-0.028712064
179	0x3d9e05eb	0.077159725
180	0xbd85d2f2	-0.06534375
181	0xbca7cbde	-0.020482954
182	0x3d3b84c8	0.045780927
183	0x3d823f30	0.06359708
184	0xbc8f044d	-0.017458105
185	0xbd816df4	-0.063198
186	0x3cc46bbe	0.023977157
187	0xbc3ee736	-0.011651805
188	0x3dd04389	0.10169131
189	0x3e0ded28	0.13859999
190	0x3da3dbf7	0.08000939
191	0xbcea47cc	-0.028598689
192	0xbc8b569a	-0.017009068
193	0x3e3e34b0	0.18574786
194	0x3d711478	0.05885741
195	0x3cff102b	0.03113564
196	0x3df2ec0e	0.1186143
197	0xbbe1d9c0	-0.006892413
198	0x3e0fc067	0.1403824
199	0xbd194191	-0.037416045
200	0x3dd8b8e5	0.10582141
201	0xbce463dc	-0.027879648
202	0xbdd2210c	-0.102602094
203	0x3de8c57d	0.11365793
204	0x3dfd2e86	0.12362389
205	0x3e1b774f	0.15182231
206	0x3dbd7002	0.092498794
207	0xbd4563e8	-0.04819098
208	0xbda0668d	-0.0783206
209	0x3e2e810d	0.17041416
210	0xbccf3fa1	-0.025298895
211	0xbd3ca060	-0.046051383
212	0x3c96c6bb	0.018405309
213	0x3d664352	0.056216545
214	0x3d074526	0.03302493
215	0xbd67886a	-0.05652658
216	0xbe108669	-0.14113773
217	0xbb1f0572	-0.002426472
218	0x3d2b9182	0.041886814
219	0x3d8c506e	0.06851278
220	0xbd40c56e	-0.047063284
221	0x3d84c776	0.06483357
222	0xbda5bcb2	-0.080926314
223	0x3de469bf	0.11152982
224	0x3e039b04	0.12852103
225	0xbd0f58a8	-0.03499666
226	0xbd508e1b	-0.050916772
227	0x3e0f79c1	0.14011289
228	0xbe05cff0	-0.13067603
229	0x3da22873	0.07917871
230	0x3d5ff7aa	0.05467955
231	0x3da79199	0.081820674
232	0xbd9440c3	-0.07238915
233	0xbd48bc2e	-0.049007587
234	0x3e098a9f	0.13431786
235	0x3e01840d	0.1264803
236	0x3c8d60e2	0.017258111
237	0x3e063dfc	0.13109583
238	0x3d5d4bc1	0.054027323
239	0xbd039da1	-0.03213275
240	0x3dbadf04	0.09124568
241	0xbcf2a3fd	-0.029619211
242	0xbdda7b13	-0.10668006
243	0xbe03bd6b	-0.12865226
244	0x3d9a282f	0.07527196
245	0x3e080d1b	0.1328625
246	0x3dc5d29b	0.096593104
247	0x3dbbc82b	0.091690384
248	0x3dc7eb57	0.097616844
249	0xbda26b18	-0.07930583
250	0x3e1d29f0	0.15348029
251	0xbd5384c8	-0.051640302
252	0x3e1782b3	0.14795952
253	0x3ceb0a29	0.028691368
254	0x3dee27bc	0.116286725
255	0x3d26114c	0.04054384

lstm.weight_hh_l1 f4 [200, 50]
0	0x3c040c60	0.008059591
1	0xbd5f64fc	-0.054539666
2	0x3e0a7535	0.13521273
3	0x3d646d65	0.05576839
4	0x3de96f88	0.11398226
5	0xbded1ac4	-0.11577371
6	0x3d015293	0.03157289
7	0xbd0f4633	-0.034979057
8	0x3d433839	0.04766104
9	0xbd19f2b0	-0.03758496
10	0x3da8759c	0.08225557
11	0x3e03a960	0.1285758
12	0x3b37b606	0.0028032078
13	0x3c8b25e9	0.01698585
14	0xbdc61bcc	-0.096732706
15	0x3da504d7	0.08057564
16	0xbcea08a9	-0.028568583
17	0xbc8dcf50	-0.017310768
18	0x3bf318ce	0.0074187284
19	0xbdd5c129	-0.10437233
20	0xbdb40077	-0.08789151
21	0xbd262849	-0.040565763
22	0x3d433397	0.04765662
23	0xbd93485b	-0.07191535
24	0x3e109deb	0.14122741
25	0x3ccaf125	0.02477319
26	0xbc51c4d4	-0.012803275
27	0xbbcceba5	-0.006253677
28	0x3c440e9f	0.011966377
29	0xbd3d6d7d	-0.046246994
30	0xbe008145	-0.12549312
31	0xbda76756	-0.08174007
32	0xbe0b2fe7	-0.13592492
33	0x3e0c2ab4	0.13688165
34	0xbdd14d3c	-0.102198094
35	0x3db0c5a0	0.08631444
36	0xbd8387c1	-0.064223774
37	0x3d596f4c	0.053084657
38	0xbe19c267	-0.15015565
39	0x3c2dfea9	0.010619798
40	0x3dd7650a	0.105173185
41	0x3daeae41	0.0852933
42	0xbd30b476	-0.04314085
43	0x3b3bd83d	0.0028662824
44	0xbd340c94	-0.043957308
45	0xbe04956c	-0.12947625
46	0xbd7b1606	-0.0613003
47	0xbe17599f	-0.14780281
48	0xbdbcb83b	-0.09214827
49	0x3d1d643e	0.038425677
50	0x3c189eff	0.009315251
51	0xbcbf236f	-0.023332326
52	0xbd5ccb54	-0.053904846
53	0x3e07e887	0.13272296
54	0x3d883903	0.06651499
55	0xbd78f826	-0.060783528
56	0x3da4d2bd	0.08048008
57	0xbd3a423c	-0.045473322
58	0xbc9a0c3a	-0.018804658
59	0xbd29c6b2	-0.041449256
60	0x3e0ab130	0.13544154
61	0xbd2db5cc	-0.042409703
62	0xbb9d5424	-0.00480129
63	0x3c47e9e2	0.012201758
64	0xbdf45a66	-0.11931305
65	0xbe0c3a1c	-0.13694042
66	0xbde406a6	-0.111340806
67	0x3de204ee	0.110360965
68	0x3d6f4468	0.058414847
69	0xbe0b2bf4	-0.13590986
70	0x3d1fa6ab	0.038977306
71	0x3e22e985	0.15909393
72	0x3d9b9136	0.07596056
73	0x3d87cc7d	0.066308
74	0x3d8370de	0.06418012
75	0x3e0e5c50	0.13902402
76	0x3d2b948b	0.04188971
77	0xbd235447	-0.039875295
78	0xbe00be0b	-0.12572496
79	0xbd79f4b2	-0.061024375
80	0xbdf6ee7f	-0.12057208
81	0x3d85a3e8	0.06525403
82	0xbda802e8	-0.08203679
83	0xbd355862	-0.04427374
84	0xbdcef533	-0.10105362
85	0x3ce83e2a	0.028349955
86	0x3cf44f7f	0.029823063
87	0x3e2d6684	0.16933638
88	0xbdc4d6ab	-0.09611257
89	0x3db70ff5	0.089385904
90	0x3c5724ac	0.013131302
91	0xbdcc037f	-0.09961604
92	0xbda316f9	-0.07963366
93	0x3dfe4e79	0.12417311
94	0x3df10122	0.11767794
95	0xbbb53187	-0.0055295858
96	0xbd5f1901	-0.054467205
97	0xbd79c3cb	-0.06097774
98	0x39c9b7ef	0.0003847475
99	0x3de5d835	0.11222879
100	0xbbb9e384	-0.005672874
101	0x3e1a5713	0.15072279
102	0xbdef778e	-0.11692725
103	0x3b2b6577	0.0026153007
104	0x3e109bc5	0.14121921
105	0xbde18317	-0.110113315
106	0xbc6b13ac	-0.014347952
107	0xbd8ea682	-0.069653526
108	0xbc7d956a	-0.015477518
109	0xbc50be63	-0.012740704
110	0x3cb20465	0.021730611
111	0x3d29714f	0.041367825
112	0xbddc6871	-0.10762108
113	0x3ce7fd3e	0.028318997
114	0x3dc2085c	0.09474251
115	0x3df3c908	0.11903578
116	0xbde4f915	-0.11180321
117	0xbd2ddd38	-0.0424473
118	0xbd0a55ca	-0.03377322
119	0x3db25f02	0.087095276
120	0xbdc5dcb1	-0.09661234
121	0xbdb4616a	-0.08807643
122	0xbdc68d9b	-0.09694978
123	0xbd8b7981	-0.068102844
124	0x3d258f3c	0.040419802
125	0xbd02bcf4	-0.03191848
126	0x3ca3b781	0.019984962
127	0xbd8d0b16	-0.0688688
128	0xbd2f07ca	-0.042732038
129	0x3da34583	0.07972243
130	0xbcb6dd0a	-0.022322197
131	0x3d59a2e9	0.05313388
132	0xbd0480f4	-0.03234954
133	0x3d2d088a	0.04224447
134	0xbd87312b	-0.06601175
135	0xbddf10a9	-0.108918495
136	0x3d9ddca9	0.07708103
137	0x3df5fbeb	0.1201094
138	0x3da7e999	0.08198852
139	0xbd9ee796	-0.07759015
140	0xbd775eea	-0.06039325
141	0x3d97413d	0.0738549
142	0xbcac83fb	-0.021059027
143	0x3dfd4843	0.123672985
144	0x3d94e798	0.072707355
145	0x3c21982b	0.00986294
146	0x3da19b73	0.07890978
147	0x3db1cafd	0.08681295
148	0xbce962d5	-0.02848951
149	0x3d841a14	0.064502865
150	0x3da1f8f6	0.07908814
151	0xbdd11379	-0.10208792
152	0x3dbaf2d7	0.09128349
153	0xbdc53d4e	-0.096308336
154	0x3deabaeb	0.11461433
155	0x3d839682	0.064251915
156	0xbdabae64	-0.08382872
157	0xbc5e6136	-0.013572982
158	0x3bceaa5b	0.006306929
159	0xbc38e281	-0.0112844715
160	0x3d2edf93	0.042693686
161	0x3d719dcc	0.058988377
162	0xbe0ff2b3	-0.14057426
163	0x3b381d8d	0.0028093786
164	0x3d918e16	0.07107179
165	0x3dbc610f	0.091982
166	0xbda19b63	-0.07890966
167	0xbd0a6759	-0.033789966
168	0xbd9b8e7f	-0.07595538
169	0x3d6ff0fe	0.058579437
170	0x3cc335d3	0.023829376
171	0x3df51b91	0.119681485
172	0x3cd6f8b6	0.026241641
173	0xbd127f52	-0.035765953
174	0xbc9e6bb5	-0.019338468
175	0xbdfb71b0	-0.122775435
176	0xbde84bbc	-0.1134257
177	0x3e00cd8a	0.12578407
178	0x3dd870d4	0.10568395
179	0x3c144d72	0.0090516675
180	0x3d6950eb	0.056961935
181	0xbe09ffab	-0.13476436
182	0xbca21b46	-0.019788396
183	0x3e0b294a	0.1358997
184	0xbd079d17	-0.033108797
185	0x3df16a4e	0.11787854
186	0xbd4b5770	-0.049643934
187	0x3cbe4c40	0.023229718
188	0xbc0fb8fb	-0.00877213
189	0xbd2b02d4	-0.041750744
190	0xbdb86bca	-0.09004934
191	0xbe02f950	-0.12790418
192	0x3c78bea0	0.015182167
193	0x3c98ee80	0.018668413
194	0x3d0840db	0.033264976
195	0xbdfca0bc	-0.12335345
196	0xbd915835	-0.07096902
197	0xbda06200	-0.07831192
198	0xbb8e2fb1	-0.0043391814
199	0xbd6c1b76	-0.057643376
200	0x3d15693e	0.03647732
201	0x3d4b4f7d	0.049636353
202	0x3e06bc7f	0.13157843
203	0x3e0a3d91	0.13500048
204	0xbd1583cc	-0.036502644
205	0xbdcc4f8b	-0.09976109
206	0xbd787b70	-0.060664594
207	0xbe1d274c	-0.15347022
208	0xbd92d0f3	-0.0716876
209	0xbdce84d6	-0.1008393
210	0xbdbf0595	-0.093272366
211	0xbd4325fe	-0.047643654
212	0xbd85250d	-0.065012075
213	0xbc38ad2b	-0.011271755
214	0x3de53b7e	0.11192988
215	0x3d5cd574	0.053914502
216	0xbdd6d7b6	-0.10490362
217	0x3d82a08b	0.063782774
218	0xbdbe1495	-0.092812695
219	0x3dbffbbd	0.09374187
220	0xbdf94925	-0.12172154
221	0x3e2d07a1	0.16897441
222	0x3d32a480	0.04361391
223	0x3de31aab	0.11089071
224	0xbc9dd0e8	-0.019264653
225	0x3ca0f420	0.019647658
226	0x3c8d7625	0.01726825
227	0x3e00ba5c	0.1257109
228	0xbd8d2c81	-0.06893254
229	0xbd90c9eb	-0.07069763
230	0x3c83add8	0.016074106
231	0xbdc7670e	-0.09736453
232	0x3e0649dc	0.13114113
233	0x3cd33d63	0.025786107
234	0x3c02d226	0.007984674
235	0xbbf3b839	-0.0074377325
236	0x3bdb62d1	0.0066951294
237	0x3da922b5	0.08258573
238	0x3ccc18e8	0.02491422
239	0xbcbdc025	-0.02316291
240	0xbd3c02ab	-0.045900982
241	0x3d14bd78	0.036313504
242	0xbd0a2107	-0.033722904
243	0xbd58fcf6	-0.052975617
244	0x3dcef10b	0.10104569
245	0xbd89b3c7	-0.06723743
246	0x3d0c3760	0.034232497
247	0x3cc8bc25	0.024503777
248	0xbde25a62	-0.110523954
249	0xbd36b48f	-0.044605788
250	0xbcf0041b	-0.029298833
251	0x3de4670e	0.111524686
252	0x3db7ed02	0.089807525
253	0xbd566d2d	-0.052350212
254	0xbdcf6431	-0.10126532
255	0x3d9a8e47	0.075466685

lstm.bias_ih_l1 f4 [200]
0	0x3e0d5068	0.13800204
1	0xbb9d6f36	-0.004804517
2	0xbc447b40	-0.011992276
3	0xbdb7e6bd	-0.08979557
4	0x3dca6ab7	0.098836355
5	0xbda9d0ca	-0.082917765
6	0xbd7cb632	-0.061697192
7	0x3de81705	0.113325156
8	0xbc52920f	-0.012852206
9	0xbdb73f7b	-0.08947655
10	0x3cdd8f3e	0.027045842
11	0x3d2a802e	0.041626148
12	0xbe015ee5	-0.12633856
13	0x3de3d663	0.111248754
14	0xbe0afc29	-0.13572754
15	0x3de89d0f	0.113580815
16	0xbca654a6	-0.020304035
17	0xbcbf3d23	-0.023344582
18	0x3d17d2a3	0.037066113
19	0xbd1f9898	-0.038963884
20	0x3ded889d	0.115983225
21	0x3d894b39	0.06703801
22	0x3d387acf	0.045038994
23	0xbda67f09	-0.08129699
24	0x3c8e5938	0.017376527
25	0x3be72c6d	0.0070548565
26	0x3e138cb5	0.14409144
27	0xbdf1d216	-0.11807649
28	0xbdefd631	-0.11710776
29	0xbd99c602	-0.0750847
30	0xbd854df3	-0.06509008
31	0xbe0f939e	-0.14021155
32	0xbcf8cb96	-0.030370515
33	0x3dcac038	0.09899944
34	0xbd83b4d7	-0.06430977
35	0xbd1891ce	-0.037248425
36	0x3db736e7	0.08946019
37	0x3e1fe119	0.15613212
38	0xbcd5171f	-0.026012002
39	0x3db1b6db	0.08677455
40	0x3e0f4733	0.13992004
41	0xbd57bab0	-0.052668273
42	0xbdce7345	-0.1008058
43	0x3dfb0db1	0.12258471
44	0x3e005818	0.12533605
45	0x3db6aabe	0.08919285
46	0x3e10fa46	0.14157972
47	0xbdaec9c3	-0.08534577
48	0x3dd03a8e	0.101674184
49	0xbac1536c	-0.0014749593
50	0xbcde474c	-0.027133606
51	0x3ca01352	0.019540463
52	0xbd5ad57d	-0.053426255
53	0xbd8df97b	-0.0693235
54	0xbd685fd8	-0.05673203
55	0xba4fefb5	-0.00079321425
56	0x3df450d7	0.119294815
57	0xbdcae89c	-0.09907648
58	0x3d0d5c39	0.03451178
59	0x3d91c57d	0.07117746
60	0x3dcc6881	0.0998087
61	0xbd60c11c	-0.054871663
62	0x3df80913	0.12111106
63	0xbe079120	-0.13238955
64	0xbdb5415d	-0.08850358
65	0xbddb6f27	-0.1071456
66	0xbd89d9b0	-0.06730974
67	0xbd9a769b	-0.075421534
68	0x3c073013	0.008251208
69	0xbc915f41	-0.017745616
70	0x3dc6a9dd	0.097003676
71	0xbcbfa005	-0.023391733
72	0xbc917ae5	-0.017758796
73	0x3cd3f6ba	0.025874484
74	0x3dfe3ff3	0.12414541
75	0x3dce2fa4	0.100676805
76	0xbde14169	-0.10998804
77	0x3d25d868	0.040489584
78	0x3d950523	0.072763704
79	0x3ce0137f	0.027353046
80	0x3dcef05d	0.101044394
81	0x3c935dee	0.017989125
82	0x3d7b47c5	0.06134774
83	0x3e1e6b6d	0.15470667
84	0xbbca5d03	-0.0061756386
85	0xbd23022b	-0.03979699
86	0xbda58a4f	-0.08083021
87	0xbe210123	-0.1572309
88	0x3cd58536	0.026064496
89	0xbc9fa948	-0.0194899
90	0xbd436504	-0.047703758
91	0x3d50acdd	0.050946105
92	0x3e0e9197	0.13922726
93	0xbdfb8d01	-0.12282754
94	0x3dc82dc8	0.09774357
95	0x3dc6c5f4	0.09705725
96	0xbd992626	-0.07477979
97	0xba8327ce	-0.001000637
98	0xbd903b3e	-0.070425496
99	0x3dfad411	0.1224748
100	0x3c633bcf	0.01386924
101	0x3b9348bb	0.004494754
102	0x3c0ddaf9	0.008658164
103	0xbd86a123	-0.06573703
104	0x3d94230f	0.072332494
105	0x3d8ab670	0.067730784
106	0x3d763578	0.060109586
107	0xbd413634	-0.047170833
108	0xbd0f2cd0	-0.034954846
109	0xbc907438	-0.017633542
110	0x3dc12219	0.09430332
111	0xbdd3f8c1	-0.103501804
112	0x3d81fa12	0.06346525
113	0xbd9607a3	-0.07325675
114	0xbdf522be	-0.11969517
115	0xbdabc3a9	-0.083869286
116	0xbd875fbc	-0.06610057
117	0xbdf3016e	-0.11865507
118	0xbd5bc529	-0.053654823
119	0x3d74050d	0.05957513
120	0xbd61bae3	-0.05510987
121	0x3c100775	0.00879084
122	0xbd893340	-0.06699228
123	0xbdb0336e	-0.086035594
124	0xbd08c934	-0.033395007
125	0xbda99292	-0.08279909
126	0x3d40a00d	0.047027636
127	0x3d9efa09	0.07762534
128	0xbcee2ad0	-0.029073149
129	0x3b218504	0.0024645934
130	0x3d8ddba3	0.06926658
131	0x3d5b54d2	0.053547688
132	0xbd80dd96	-0.06292264
133	0xbd9570fb	-0.0729694
134	0xb985e1cf	-0.00025535977
135	0xbdeb6421	-0.114937074
136	0x3d8e5b38	0.06950992
137	0x3de28c4d	0.110619165
138	0xbdd88604	-0.105724365
139	0x3d66e03e	0.056366198
140	0xbd5db1bf	-0.05412459
141	0xbc75280b	-0.01496316
142	0x3991a746	0.00027781184
143	0x3d89cc73	0.06728449
144	0x3da39b84	0.079886466
145	0x3d82fc09	0.06395728
146	0x3d447ea7	0.047972348
147	0x3d85a37b	0.06525322
148	0xbdc50584	-0.09620193
149	0x3d831f22	0.064024225
150	0x3e16466c	0.14675301
151	0xbbe94712	-0.007119068
152	0x3e0cae4b	0.13738362
153	0xbbe4f533	-0.006987238
154	0x3cd0e021	0.025497498
155	0xbdc28f2b	-0.094999634
156	0x3de14a4b	0.110004984
157	0xbda5cdf3	-0.08095922
158	0x3d62ab92	0.055339403
159	0xbd46e268	-0.04855576
160	0xbc662f8d	-0.014049423
161	0x3d601912	0.05471141
162	0xbda3dc46	-0.08000998
163	0xbc1b293c	-0.00947028
164	0xbd6d0edd	-0.057875503
165	0xbbb250fe	-0.005441784
166	0xbdc92e40	-0.098232746
167	0x3dee552e	0.116373405
168	0xbd7a9644	-0.06117846
169	0x3d9fe12e	0.078066215
170	0x3d99541b	0.07486745
171	0x3d116242	0.035494097
172	0x3d9e69ac	0.07734999
173	0xbdb05a52	-0.08610977
174	0x3e00b2bb	0.1256818
175	0xbdcc2108	-0.09967238
176	0xbdc7a634	-0.097484976
177	0xbd4bb810	-0.049736083
178	0xbd3bb5df	-0.045827743
179	0xbde21f6a	-0.11041148
180	0x3de53e0f	0.11193477
181	0x3dd70c6b	0.105004154
182	0xbd396cdb	-0.04526983
183	0x3de189e5	0.110126294
184	0xbd46315f	-0.048386928
185	0xbdc606e8	-0.09669286
186	0x3b7f3621	0.0038942175
187	0x3d794d7e	0.060864918
188	0x3da83125	0.082124986
189	0x3dc40204	0.09570697
190	0xbd559efc	-0.052153572
191	0xbd9e1283	-0.077183746
192	0xbc5b91ef	-0.0134014925
193	0xbdf90e46	-0.121609256
194	0xbd5b806b	-0.053589266
195	0xbe1fc385	-0.15601929
196	0x3c88459b	0.016634753
197	0x3d91fe5e	0.07128595
198	0x3cdbd0a7	0.026832892
199	0x3d856c4c	0.065147966

lstm.bias_hh_l1 f4 [200]
0	0xbc35ac3c	-0.011088427
1	0xbd37cc9a	-0.044872858
2	0xbdb5157c	-0.088419884
3	0x3d63a6e2	0.055579074
4	0xbe0da014	-0.13830596
5	0x3d1dac6c	0.038494512
6	0x3dcec2f0	0.10095775
7	0xbc1a24a8	-0.009408154
8	0xbd943e37	-0.07238429
9	0x3d0f3836	0.034965716
10	0xbd56179a	-0.052268602
11	0xbdf388c3	-0.118913196
12	0xbd93efdb	-0.07223483
13	0x3ddd06a1	0.1079228
14	0xbd76d008	-0.060256988
15	0x3de7bfeb	0.11315902
16	0x3e311c4e	0.17295954
17	0xbd4460d4	-0.047943905
18	0x3d2aefdc	0.041732654
19	0x3e585caa	0.21129099
20	0xbdb5a064	-0.08868483
21	0x3deddd2d	0.116144516
22	0x3ddd4448	0.10804039
23	0xbdab099c	-0.08351442
24	0x3e10d2c0	0.14142895
25	0x3ad45273	0.0016198888
26	0x3d81f659	0.06345815
27	0x3cec5f7a	0.02885412
28	0xbd427778	-0.047477216
29	0xbdcd45c1	-0.1002307
30	0xbb75520b	-0.0037432935
31	0x3d2f805e	0.04284703
32	0x3dbb9a73	0.09160318
33	0xbd9e4d63	-0.07729604
34	0xbd002eba	-0.031294562
35	0x3e0969d2	0.13419273
36	0x3cd9e39a	0.026597787
37	0xbc4c509d	-0.012470392
38	0x3dba0964	0.09083822
39	0x3d343f82	0.04400588
40	0x3dfea003	0.124328636
41	0x3dfabcf8	0.12243074
42	0xbdf8a1e4	-0.12140253
43	0xbdf79637	-0.12089198
44	0x3e3c9378	0.1841563
45	0xbe036883	-0.12832837
46	0xbdbd1aea	-0.09233649
47	0x3de525ab	0.11188825
48	0x3d656586	0.056005023
49	0xbd121e2f	-0.035673317
50	0xbde95ef5	-0.11395065
51	0x3df2e330	0.11859739
52	0x3dfef3bc	0.124488324
53	0xbde5790e	-0.1120473
54	0xbbc11ee5	-0.0058935755
55	0x3d71174e	0.058860116
56	0xbd6700f4	-0.056397393
57	0xbd96bfd5	-0.07360808
58	0xbd87fb60	-0.06639743
59	0xbdbd093d	-0.09230278
60	0x3da6ba85	0.081410445
61	0xbdd3a2a4	-0.103337556
62	0x3d73fd07	0.059567478
63	0x3dd04d06	0.10170941
64	0xbdc21305	-0.09476284
65	0x3dc6342e	0.09677921
66	0x3d9c0105	0.07617382
67	0xbdc8d424	-0.098060876
68	0x3d4b1716	0.049582563
69	0x3d76254d	0.060094167
70	0x3cc6ced3	0.024268543
71	0x3caa2c96	0.020773213
72	0xbd2b7ad6	-0.041865192
73	0x3d574165	0.0525526
74	0x3d1eff14	0.03881748
75	0xbca93baf	-0.020658342
76	0xbd3af19e	-0.04564058
77	0x3ca1e506	0.019762527
78	0xbd6f8b2e	-0.05848234
79	0xbdc477fe	-0.09593199
80	0xbdfcba4b	-0.1234022
81	0xbd854ae3	-0.06508424
82	0xbc62a23d	-0.013832626
83	0x3e0865b8	0.13320053
84	0x3d4184e4	0.047245875
85	0x3c607594	0.013699908
86	0xbdb81ecd	-0.0899025
87	0x3c8f4db2	0.017493103
88	0xbe03341c	-0.12812847
89	0x3da4ab63	0.08040502
90	0x3afb390d	0.0019166783
91	0xbdfa61b6	-0.12225668
92	0xbbf86681	-0.007580579
93	0xbdc41bb6	-0.09575598
94	0xbd67090d	-0.056405116
95	0xbdcb6303	-0.09930994
96	0x3d706bcd	0.058696557
97	0x3cd4803b	0.025940051
98	0x3dabd53c	0.083902806
99	0xbb32832c	-0.002723883
100	0x3dda88de	0.106706366
101	0xbd9b2756	-0.07575862
102	0x3dbc0c90	0.091820836
103	0xbda42f45	-0.080168284
104	0x3dcee875	0.101029314
105	0xbd0da835	-0.034584243
106	0xbdeb7e22	-0.11498667
107	0x3c715bbd	0.014731345
108	0x3c7109b5	0.014711787
109	0x3dbff546	0.09372954
110	0xbcfe8dda	-0.0310735
111	0xbd77d690	-0.060507357
112	0xbd7d4262	-0.061830886
113	0xbd353129	-0.044236336
114	0x3d36702d	0.044540573
115	0xbcc5a16c	-0.024124824
116	0xbd15d4b1	-0.03657979
117	0xbdd848cb	-0.10560759
118	0xbd4f71e0	-0.05064571
119	0xbdae89d5	-0.08522383
120	0x3dcda469	0.100411244
121	0x3b55e6c1	0.003263876
122	0x3d6667c7	0.056251314
123	0xbd8ea55d	-0.06965134
124	0xbd0ba170	-0.034089506
125	0xbbe5a3da	-0.007008058
126	0xbdb12926	-0.086504266
127	0x3d0d087d	0.034431923
128	0xbd51dff5	-0.051238973
129	0x3d8474e6	0.06467609
130	0x3d2d70b8	0.042343825
131	0x3de837d3	0.113387726
132	0xbd39888b	-0.045296233
133	0x3da692b1	0.08133448
134	0x3cb391bd	0.02192008
135	0xbdc83e93	-0.0977756
136	0x3e00ae1b	0.12566416
137	0xbdaa92b0	-0.0832876
138	0xbd89247d	-0.06696413
139	0xbd84ce2c	-0.06484637
140	0xbdf2da67	-0.11858063
141	0xbd7c9a89	-0.061670814
142	0x3d1108b2	0.035408683
143	0xbd4e07c3	-0.05030037
144	0xbc96306e	-0.01833364
145	0x3dc55cb8	0.09636825
146	0xbd251bfb	-0.040309887
147	0x3d367ed0	0.04455453
148	0x3d94c3e8	0.07263929
149	0xbe074d40	-0.13213062
150	0xbcdcbbdc	-0.026945047
151	0xbdd96aa7	-0.106160454
152	0x3ced8a46	0.028996598
153	0x3bb74844	0.0055933315
154	0xbe12fc80	-0.14354134
155	0x3bbcb3d1	0.0057587405
156	0xbd42058e	-0.04736858
157	0x3d620e84	0.055189624
158	0x3c31c877	0.010851017
159	0x3d5d49d9	0.054025505
160	0xbcf32414	-0.02968029
161	0xbceb47c3	-0.028720742
162	0xbdefbc07	-0.11705785
163	0x3dcfe42c	0.10150942
164	0x3ccd6b63	0.02507562
165	0x3e015fa8	0.12634146
166	0x3d3bb3cc	0.045825765
167	0xbd3d42da	-0.046206333
168	0xbc8224f3	-0.01588676
169	0x3b60960c	0.0034269122
170	0xbdf0a6b2	-0.117505446
171	0xbd0f38dd	-0.03496634
172	0xbd008c00	-0.031383514
173	0xbd97f181	-0.0741911
174	0x3e021a46	0.12705335
175	0x3cf36b44	0.029714234
176	0x3d97c556	0.07410686
177	0x3dd142b2	0.10217799
178	0xbcab1960	-0.020886123
179	0xbdfdd3dc	-0.123939246
180	0x3d538933	0.051644515
181	0xbdddc63d	-0.108288266
182	0xbd434329	-0.04767147
183	0xbd47c37d	-0.048770417
184	0xbdad0f14	-0.084501415
185	0xbdf6a17e	-0.12042521
186	0x3de5b8b9	0.11216874
187	0x3d43b679	0.04778144
188	0xbd2eb574	-0.042653516
189	0xbdd2bd73	-0.10290041
190	0xbd3ca79b	-0.04605828
191	0xbd2e56c9	-0.042563234
192	0xbd9f56f3	-0.07780256
193	0xbbf184e0	-0.0073705763
194	0x3daa5144	0.083162814
195	0xbb1925d5	-0.0023368497
196	0x3e2743f6	0.16334519
197	0x3ce64396	0.0281084
198	0x3cdd2825	0.026996681
199	0xbc3fdb57	-0.01171001
